<?xml version="1.0" ?>
<net name="simple" version="10">
	<layers>
		<layer id="0" name="input.1" type="Parameter" version="opset1">
			<data shape="1,3,320,320" element_type="f32"/>
			<output>
				<port id="0" precision="FP32">
					<dim>1</dim>
					<dim>3</dim>
					<dim>320</dim>
					<dim>320</dim>
				</port>
			</output>
		</layer>
		<layer id="1" name="onnx_initializer_node_845/Output_0/Data__const" type="Const" version="opset1">
			<data offset="0" size="2592" shape="24,3,3,3" element_type="f32"/>
			<output>
				<port id="1" precision="FP32">
					<dim>24</dim>
					<dim>3</dim>
					<dim>3</dim>
					<dim>3</dim>
				</port>
			</output>
		</layer>
		<layer id="2" name="Conv_0/WithoutBiases" type="Convolution" version="opset1">
			<data strides="2,2" dilations="1,1" pads_begin="1,1" pads_end="1,1" output_padding="0,0"/>
			<input>
				<port id="0">
					<dim>1</dim>
					<dim>3</dim>
					<dim>320</dim>
					<dim>320</dim>
				</port>
				<port id="1">
					<dim>24</dim>
					<dim>3</dim>
					<dim>3</dim>
					<dim>3</dim>
				</port>
			</input>
			<output>
				<port id="2" precision="FP32">
					<dim>1</dim>
					<dim>24</dim>
					<dim>160</dim>
					<dim>160</dim>
				</port>
			</output>
		</layer>
		<layer id="3" name="Conv_0/Dims5042/copy_const" type="Const" version="opset1">
			<data offset="2592" size="96" shape="1,24,1,1" element_type="f32"/>
			<output>
				<port id="1" precision="FP32">
					<dim>1</dim>
					<dim>24</dim>
					<dim>1</dim>
					<dim>1</dim>
				</port>
			</output>
		</layer>
		<layer id="4" name="Conv_0" type="Add" version="opset1">
			<input>
				<port id="0">
					<dim>1</dim>
					<dim>24</dim>
					<dim>160</dim>
					<dim>160</dim>
				</port>
				<port id="1">
					<dim>1</dim>
					<dim>24</dim>
					<dim>1</dim>
					<dim>1</dim>
				</port>
			</input>
			<output>
				<port id="2" precision="FP32">
					<dim>1</dim>
					<dim>24</dim>
					<dim>160</dim>
					<dim>160</dim>
				</port>
			</output>
		</layer>
		<layer id="5" name="LeakyRelu_113332/Cast_118915_const" type="Const" version="opset1">
			<data offset="2688" size="4" shape="1" element_type="f32"/>
			<output>
				<port id="1" precision="FP32">
					<dim>1</dim>
				</port>
			</output>
		</layer>
		<layer id="6" name="LeakyRelu_113332" type="PReLU" version="opset1">
			<input>
				<port id="0">
					<dim>1</dim>
					<dim>24</dim>
					<dim>160</dim>
					<dim>160</dim>
				</port>
				<port id="1">
					<dim>1</dim>
				</port>
			</input>
			<output>
				<port id="2" precision="FP32">
					<dim>1</dim>
					<dim>24</dim>
					<dim>160</dim>
					<dim>160</dim>
				</port>
			</output>
		</layer>
		<layer id="7" name="MaxPool_2" type="MaxPool" version="opset1">
			<data strides="2,2" kernel="3,3" pads_begin="1,1" pads_end="1,1" rounding_type="floor"/>
			<input>
				<port id="0">
					<dim>1</dim>
					<dim>24</dim>
					<dim>160</dim>
					<dim>160</dim>
				</port>
			</input>
			<output>
				<port id="1" precision="FP32">
					<dim>1</dim>
					<dim>24</dim>
					<dim>80</dim>
					<dim>80</dim>
				</port>
			</output>
		</layer>
		<layer id="8" name="1816618169_const" type="Const" version="opset1">
			<data offset="2692" size="864" shape="24,1,1,3,3" element_type="f32"/>
			<output>
				<port id="1" precision="FP32">
					<dim>24</dim>
					<dim>1</dim>
					<dim>1</dim>
					<dim>3</dim>
					<dim>3</dim>
				</port>
			</output>
		</layer>
		<layer id="9" name="Conv_3/WithoutBiases" type="GroupConvolution" version="opset1">
			<data strides="2,2" dilations="1,1" pads_begin="1,1" pads_end="1,1" output_padding="0,0"/>
			<input>
				<port id="0">
					<dim>1</dim>
					<dim>24</dim>
					<dim>80</dim>
					<dim>80</dim>
				</port>
				<port id="1">
					<dim>24</dim>
					<dim>1</dim>
					<dim>1</dim>
					<dim>3</dim>
					<dim>3</dim>
				</port>
			</input>
			<output>
				<port id="2" precision="FP32">
					<dim>1</dim>
					<dim>24</dim>
					<dim>40</dim>
					<dim>40</dim>
				</port>
			</output>
		</layer>
		<layer id="10" name="Conv_3/Dims4844/copy_const" type="Const" version="opset1">
			<data offset="3556" size="96" shape="1,24,1,1" element_type="f32"/>
			<output>
				<port id="1" precision="FP32">
					<dim>1</dim>
					<dim>24</dim>
					<dim>1</dim>
					<dim>1</dim>
				</port>
			</output>
		</layer>
		<layer id="11" name="Conv_3" type="Add" version="opset1">
			<input>
				<port id="0">
					<dim>1</dim>
					<dim>24</dim>
					<dim>40</dim>
					<dim>40</dim>
				</port>
				<port id="1">
					<dim>1</dim>
					<dim>24</dim>
					<dim>1</dim>
					<dim>1</dim>
				</port>
			</input>
			<output>
				<port id="2" precision="FP32">
					<dim>1</dim>
					<dim>24</dim>
					<dim>40</dim>
					<dim>40</dim>
				</port>
			</output>
		</layer>
		<layer id="12" name="onnx_initializer_node_851/Output_0/Data__const" type="Const" version="opset1">
			<data offset="3652" size="5568" shape="58,24,1,1" element_type="f32"/>
			<output>
				<port id="1" precision="FP32">
					<dim>58</dim>
					<dim>24</dim>
					<dim>1</dim>
					<dim>1</dim>
				</port>
			</output>
		</layer>
		<layer id="13" name="Conv_4/WithoutBiases" type="Convolution" version="opset1">
			<data strides="1,1" dilations="1,1" pads_begin="0,0" pads_end="0,0" output_padding="0,0"/>
			<input>
				<port id="0">
					<dim>1</dim>
					<dim>24</dim>
					<dim>40</dim>
					<dim>40</dim>
				</port>
				<port id="1">
					<dim>58</dim>
					<dim>24</dim>
					<dim>1</dim>
					<dim>1</dim>
				</port>
			</input>
			<output>
				<port id="2" precision="FP32">
					<dim>1</dim>
					<dim>58</dim>
					<dim>40</dim>
					<dim>40</dim>
				</port>
			</output>
		</layer>
		<layer id="14" name="Conv_4/Dims4952/copy_const" type="Const" version="opset1">
			<data offset="9220" size="232" shape="1,58,1,1" element_type="f32"/>
			<output>
				<port id="1" precision="FP32">
					<dim>1</dim>
					<dim>58</dim>
					<dim>1</dim>
					<dim>1</dim>
				</port>
			</output>
		</layer>
		<layer id="15" name="Conv_4" type="Add" version="opset1">
			<input>
				<port id="0">
					<dim>1</dim>
					<dim>58</dim>
					<dim>40</dim>
					<dim>40</dim>
				</port>
				<port id="1">
					<dim>1</dim>
					<dim>58</dim>
					<dim>1</dim>
					<dim>1</dim>
				</port>
			</input>
			<output>
				<port id="2" precision="FP32">
					<dim>1</dim>
					<dim>58</dim>
					<dim>40</dim>
					<dim>40</dim>
				</port>
			</output>
		</layer>
		<layer id="16" name="LeakyRelu_513312/Cast_118841_const" type="Const" version="opset1">
			<data offset="2688" size="4" shape="1" element_type="f32"/>
			<output>
				<port id="1" precision="FP32">
					<dim>1</dim>
				</port>
			</output>
		</layer>
		<layer id="17" name="LeakyRelu_513312" type="PReLU" version="opset1">
			<input>
				<port id="0">
					<dim>1</dim>
					<dim>58</dim>
					<dim>40</dim>
					<dim>40</dim>
				</port>
				<port id="1">
					<dim>1</dim>
				</port>
			</input>
			<output>
				<port id="2" precision="FP32">
					<dim>1</dim>
					<dim>58</dim>
					<dim>40</dim>
					<dim>40</dim>
				</port>
			</output>
		</layer>
		<layer id="18" name="onnx_initializer_node_854/Output_0/Data__const" type="Const" version="opset1">
			<data offset="9452" size="5568" shape="58,24,1,1" element_type="f32"/>
			<output>
				<port id="1" precision="FP32">
					<dim>58</dim>
					<dim>24</dim>
					<dim>1</dim>
					<dim>1</dim>
				</port>
			</output>
		</layer>
		<layer id="19" name="Conv_6/WithoutBiases" type="Convolution" version="opset1">
			<data strides="1,1" dilations="1,1" pads_begin="0,0" pads_end="0,0" output_padding="0,0"/>
			<input>
				<port id="0">
					<dim>1</dim>
					<dim>24</dim>
					<dim>80</dim>
					<dim>80</dim>
				</port>
				<port id="1">
					<dim>58</dim>
					<dim>24</dim>
					<dim>1</dim>
					<dim>1</dim>
				</port>
			</input>
			<output>
				<port id="2" precision="FP32">
					<dim>1</dim>
					<dim>58</dim>
					<dim>80</dim>
					<dim>80</dim>
				</port>
			</output>
		</layer>
		<layer id="20" name="Conv_6/Dims5114/copy_const" type="Const" version="opset1">
			<data offset="15020" size="232" shape="1,58,1,1" element_type="f32"/>
			<output>
				<port id="1" precision="FP32">
					<dim>1</dim>
					<dim>58</dim>
					<dim>1</dim>
					<dim>1</dim>
				</port>
			</output>
		</layer>
		<layer id="21" name="Conv_6" type="Add" version="opset1">
			<input>
				<port id="0">
					<dim>1</dim>
					<dim>58</dim>
					<dim>80</dim>
					<dim>80</dim>
				</port>
				<port id="1">
					<dim>1</dim>
					<dim>58</dim>
					<dim>1</dim>
					<dim>1</dim>
				</port>
			</input>
			<output>
				<port id="2" precision="FP32">
					<dim>1</dim>
					<dim>58</dim>
					<dim>80</dim>
					<dim>80</dim>
				</port>
			</output>
		</layer>
		<layer id="22" name="LeakyRelu_713336/Cast_118927_const" type="Const" version="opset1">
			<data offset="2688" size="4" shape="1" element_type="f32"/>
			<output>
				<port id="1" precision="FP32">
					<dim>1</dim>
				</port>
			</output>
		</layer>
		<layer id="23" name="LeakyRelu_713336" type="PReLU" version="opset1">
			<input>
				<port id="0">
					<dim>1</dim>
					<dim>58</dim>
					<dim>80</dim>
					<dim>80</dim>
				</port>
				<port id="1">
					<dim>1</dim>
				</port>
			</input>
			<output>
				<port id="2" precision="FP32">
					<dim>1</dim>
					<dim>58</dim>
					<dim>80</dim>
					<dim>80</dim>
				</port>
			</output>
		</layer>
		<layer id="24" name="1815818161_const" type="Const" version="opset1">
			<data offset="15252" size="2088" shape="58,1,1,3,3" element_type="f32"/>
			<output>
				<port id="1" precision="FP32">
					<dim>58</dim>
					<dim>1</dim>
					<dim>1</dim>
					<dim>3</dim>
					<dim>3</dim>
				</port>
			</output>
		</layer>
		<layer id="25" name="Conv_8/WithoutBiases" type="GroupConvolution" version="opset1">
			<data strides="2,2" dilations="1,1" pads_begin="1,1" pads_end="1,1" output_padding="0,0"/>
			<input>
				<port id="0">
					<dim>1</dim>
					<dim>58</dim>
					<dim>80</dim>
					<dim>80</dim>
				</port>
				<port id="1">
					<dim>58</dim>
					<dim>1</dim>
					<dim>1</dim>
					<dim>3</dim>
					<dim>3</dim>
				</port>
			</input>
			<output>
				<port id="2" precision="FP32">
					<dim>1</dim>
					<dim>58</dim>
					<dim>40</dim>
					<dim>40</dim>
				</port>
			</output>
		</layer>
		<layer id="26" name="Conv_8/Dims4826/copy_const" type="Const" version="opset1">
			<data offset="17340" size="232" shape="1,58,1,1" element_type="f32"/>
			<output>
				<port id="1" precision="FP32">
					<dim>1</dim>
					<dim>58</dim>
					<dim>1</dim>
					<dim>1</dim>
				</port>
			</output>
		</layer>
		<layer id="27" name="Conv_8" type="Add" version="opset1">
			<input>
				<port id="0">
					<dim>1</dim>
					<dim>58</dim>
					<dim>40</dim>
					<dim>40</dim>
				</port>
				<port id="1">
					<dim>1</dim>
					<dim>58</dim>
					<dim>1</dim>
					<dim>1</dim>
				</port>
			</input>
			<output>
				<port id="2" precision="FP32">
					<dim>1</dim>
					<dim>58</dim>
					<dim>40</dim>
					<dim>40</dim>
				</port>
			</output>
		</layer>
		<layer id="28" name="onnx_initializer_node_860/Output_0/Data__const" type="Const" version="opset1">
			<data offset="17572" size="13456" shape="58,58,1,1" element_type="f32"/>
			<output>
				<port id="1" precision="FP32">
					<dim>58</dim>
					<dim>58</dim>
					<dim>1</dim>
					<dim>1</dim>
				</port>
			</output>
		</layer>
		<layer id="29" name="Conv_9/WithoutBiases" type="Convolution" version="opset1">
			<data strides="1,1" dilations="1,1" pads_begin="0,0" pads_end="0,0" output_padding="0,0"/>
			<input>
				<port id="0">
					<dim>1</dim>
					<dim>58</dim>
					<dim>40</dim>
					<dim>40</dim>
				</port>
				<port id="1">
					<dim>58</dim>
					<dim>58</dim>
					<dim>1</dim>
					<dim>1</dim>
				</port>
			</input>
			<output>
				<port id="2" precision="FP32">
					<dim>1</dim>
					<dim>58</dim>
					<dim>40</dim>
					<dim>40</dim>
				</port>
			</output>
		</layer>
		<layer id="30" name="Conv_9/Dims4784/copy_const" type="Const" version="opset1">
			<data offset="31028" size="232" shape="1,58,1,1" element_type="f32"/>
			<output>
				<port id="1" precision="FP32">
					<dim>1</dim>
					<dim>58</dim>
					<dim>1</dim>
					<dim>1</dim>
				</port>
			</output>
		</layer>
		<layer id="31" name="Conv_9" type="Add" version="opset1">
			<input>
				<port id="0">
					<dim>1</dim>
					<dim>58</dim>
					<dim>40</dim>
					<dim>40</dim>
				</port>
				<port id="1">
					<dim>1</dim>
					<dim>58</dim>
					<dim>1</dim>
					<dim>1</dim>
				</port>
			</input>
			<output>
				<port id="2" precision="FP32">
					<dim>1</dim>
					<dim>58</dim>
					<dim>40</dim>
					<dim>40</dim>
				</port>
			</output>
		</layer>
		<layer id="32" name="LeakyRelu_1013360/Cast_118887_const" type="Const" version="opset1">
			<data offset="2688" size="4" shape="1" element_type="f32"/>
			<output>
				<port id="1" precision="FP32">
					<dim>1</dim>
				</port>
			</output>
		</layer>
		<layer id="33" name="LeakyRelu_1013360" type="PReLU" version="opset1">
			<input>
				<port id="0">
					<dim>1</dim>
					<dim>58</dim>
					<dim>40</dim>
					<dim>40</dim>
				</port>
				<port id="1">
					<dim>1</dim>
				</port>
			</input>
			<output>
				<port id="2" precision="FP32">
					<dim>1</dim>
					<dim>58</dim>
					<dim>40</dim>
					<dim>40</dim>
				</port>
			</output>
		</layer>
		<layer id="34" name="Concat_11" type="Concat" version="opset1">
			<data axis="1"/>
			<input>
				<port id="0">
					<dim>1</dim>
					<dim>58</dim>
					<dim>40</dim>
					<dim>40</dim>
				</port>
				<port id="1">
					<dim>1</dim>
					<dim>58</dim>
					<dim>40</dim>
					<dim>40</dim>
				</port>
			</input>
			<output>
				<port id="2" precision="FP32">
					<dim>1</dim>
					<dim>116</dim>
					<dim>40</dim>
					<dim>40</dim>
				</port>
			</output>
		</layer>
		<layer id="35" name="Reshape_13/Cast_118959_const" type="Const" version="opset1">
			<data offset="31260" size="40" shape="5" element_type="i64"/>
			<output>
				<port id="1" precision="I64">
					<dim>5</dim>
				</port>
			</output>
		</layer>
		<layer id="36" name="Reshape_13" type="Reshape" version="opset1">
			<data special_zero="True"/>
			<input>
				<port id="0">
					<dim>1</dim>
					<dim>116</dim>
					<dim>40</dim>
					<dim>40</dim>
				</port>
				<port id="1">
					<dim>5</dim>
				</port>
			</input>
			<output>
				<port id="2" precision="FP32">
					<dim>1</dim>
					<dim>2</dim>
					<dim>58</dim>
					<dim>40</dim>
					<dim>40</dim>
				</port>
			</output>
		</layer>
		<layer id="37" name="Transpose_14/Cast_118875_const" type="Const" version="opset1">
			<data offset="31300" size="40" shape="5" element_type="i64"/>
			<output>
				<port id="1" precision="I64">
					<dim>5</dim>
				</port>
			</output>
		</layer>
		<layer id="38" name="Transpose_14" type="Transpose" version="opset1">
			<input>
				<port id="0">
					<dim>1</dim>
					<dim>2</dim>
					<dim>58</dim>
					<dim>40</dim>
					<dim>40</dim>
				</port>
				<port id="1">
					<dim>5</dim>
				</port>
			</input>
			<output>
				<port id="2" precision="FP32">
					<dim>1</dim>
					<dim>58</dim>
					<dim>2</dim>
					<dim>40</dim>
					<dim>40</dim>
				</port>
			</output>
		</layer>
		<layer id="39" name="Reshape_16/Cast_118899_const" type="Const" version="opset1">
			<data offset="31340" size="32" shape="4" element_type="i64"/>
			<output>
				<port id="1" precision="I64">
					<dim>4</dim>
				</port>
			</output>
		</layer>
		<layer id="40" name="Reshape_16" type="Reshape" version="opset1">
			<data special_zero="True"/>
			<input>
				<port id="0">
					<dim>1</dim>
					<dim>58</dim>
					<dim>2</dim>
					<dim>40</dim>
					<dim>40</dim>
				</port>
				<port id="1">
					<dim>4</dim>
				</port>
			</input>
			<output>
				<port id="2" precision="FP32">
					<dim>1</dim>
					<dim>116</dim>
					<dim>40</dim>
					<dim>40</dim>
				</port>
			</output>
		</layer>
		<layer id="41" name="Split_17/VariadicSplit_input_port_1/value/Output_0/Data__const" type="Const" version="opset1">
			<data offset="31372" size="8" shape="" element_type="i64"/>
			<output>
				<port id="1" precision="I64"/>
			</output>
		</layer>
		<layer id="42" name="Split_17/VariadicSplit_input_port_2/value/Output_0/Data__const" type="Const" version="opset1">
			<data offset="31380" size="16" shape="2" element_type="i64"/>
			<output>
				<port id="1" precision="I64">
					<dim>2</dim>
				</port>
			</output>
		</layer>
		<layer id="43" name="Split_17/VariadicSplit" type="VariadicSplit" version="opset1">
			<input>
				<port id="0">
					<dim>1</dim>
					<dim>116</dim>
					<dim>40</dim>
					<dim>40</dim>
				</port>
				<port id="1"/>
				<port id="2">
					<dim>2</dim>
				</port>
			</input>
			<output>
				<port id="3" precision="FP32">
					<dim>1</dim>
					<dim>58</dim>
					<dim>40</dim>
					<dim>40</dim>
				</port>
				<port id="4" precision="FP32">
					<dim>1</dim>
					<dim>58</dim>
					<dim>40</dim>
					<dim>40</dim>
				</port>
			</output>
		</layer>
		<layer id="44" name="onnx_initializer_node_863/Output_0/Data__const" type="Const" version="opset1">
			<data offset="31396" size="13456" shape="58,58,1,1" element_type="f32"/>
			<output>
				<port id="1" precision="FP32">
					<dim>58</dim>
					<dim>58</dim>
					<dim>1</dim>
					<dim>1</dim>
				</port>
			</output>
		</layer>
		<layer id="45" name="Conv_18/WithoutBiases" type="Convolution" version="opset1">
			<data strides="1,1" dilations="1,1" pads_begin="0,0" pads_end="0,0" output_padding="0,0"/>
			<input>
				<port id="0">
					<dim>1</dim>
					<dim>58</dim>
					<dim>40</dim>
					<dim>40</dim>
				</port>
				<port id="1">
					<dim>58</dim>
					<dim>58</dim>
					<dim>1</dim>
					<dim>1</dim>
				</port>
			</input>
			<output>
				<port id="2" precision="FP32">
					<dim>1</dim>
					<dim>58</dim>
					<dim>40</dim>
					<dim>40</dim>
				</port>
			</output>
		</layer>
		<layer id="46" name="Conv_18/Dims4850/copy_const" type="Const" version="opset1">
			<data offset="44852" size="232" shape="1,58,1,1" element_type="f32"/>
			<output>
				<port id="1" precision="FP32">
					<dim>1</dim>
					<dim>58</dim>
					<dim>1</dim>
					<dim>1</dim>
				</port>
			</output>
		</layer>
		<layer id="47" name="Conv_18" type="Add" version="opset1">
			<input>
				<port id="0">
					<dim>1</dim>
					<dim>58</dim>
					<dim>40</dim>
					<dim>40</dim>
				</port>
				<port id="1">
					<dim>1</dim>
					<dim>58</dim>
					<dim>1</dim>
					<dim>1</dim>
				</port>
			</input>
			<output>
				<port id="2" precision="FP32">
					<dim>1</dim>
					<dim>58</dim>
					<dim>40</dim>
					<dim>40</dim>
				</port>
			</output>
		</layer>
		<layer id="48" name="LeakyRelu_1913308/Cast_119031_const" type="Const" version="opset1">
			<data offset="2688" size="4" shape="1" element_type="f32"/>
			<output>
				<port id="1" precision="FP32">
					<dim>1</dim>
				</port>
			</output>
		</layer>
		<layer id="49" name="LeakyRelu_1913308" type="PReLU" version="opset1">
			<input>
				<port id="0">
					<dim>1</dim>
					<dim>58</dim>
					<dim>40</dim>
					<dim>40</dim>
				</port>
				<port id="1">
					<dim>1</dim>
				</port>
			</input>
			<output>
				<port id="2" precision="FP32">
					<dim>1</dim>
					<dim>58</dim>
					<dim>40</dim>
					<dim>40</dim>
				</port>
			</output>
		</layer>
		<layer id="50" name="1815018153_const" type="Const" version="opset1">
			<data offset="45084" size="2088" shape="58,1,1,3,3" element_type="f32"/>
			<output>
				<port id="1" precision="FP32">
					<dim>58</dim>
					<dim>1</dim>
					<dim>1</dim>
					<dim>3</dim>
					<dim>3</dim>
				</port>
			</output>
		</layer>
		<layer id="51" name="Conv_20/WithoutBiases" type="GroupConvolution" version="opset1">
			<data strides="1,1" dilations="1,1" pads_begin="1,1" pads_end="1,1" output_padding="0,0"/>
			<input>
				<port id="0">
					<dim>1</dim>
					<dim>58</dim>
					<dim>40</dim>
					<dim>40</dim>
				</port>
				<port id="1">
					<dim>58</dim>
					<dim>1</dim>
					<dim>1</dim>
					<dim>3</dim>
					<dim>3</dim>
				</port>
			</input>
			<output>
				<port id="2" precision="FP32">
					<dim>1</dim>
					<dim>58</dim>
					<dim>40</dim>
					<dim>40</dim>
				</port>
			</output>
		</layer>
		<layer id="52" name="Conv_20/Dims4814/copy_const" type="Const" version="opset1">
			<data offset="47172" size="232" shape="1,58,1,1" element_type="f32"/>
			<output>
				<port id="1" precision="FP32">
					<dim>1</dim>
					<dim>58</dim>
					<dim>1</dim>
					<dim>1</dim>
				</port>
			</output>
		</layer>
		<layer id="53" name="Conv_20" type="Add" version="opset1">
			<input>
				<port id="0">
					<dim>1</dim>
					<dim>58</dim>
					<dim>40</dim>
					<dim>40</dim>
				</port>
				<port id="1">
					<dim>1</dim>
					<dim>58</dim>
					<dim>1</dim>
					<dim>1</dim>
				</port>
			</input>
			<output>
				<port id="2" precision="FP32">
					<dim>1</dim>
					<dim>58</dim>
					<dim>40</dim>
					<dim>40</dim>
				</port>
			</output>
		</layer>
		<layer id="54" name="onnx_initializer_node_869/Output_0/Data__const" type="Const" version="opset1">
			<data offset="47404" size="13456" shape="58,58,1,1" element_type="f32"/>
			<output>
				<port id="1" precision="FP32">
					<dim>58</dim>
					<dim>58</dim>
					<dim>1</dim>
					<dim>1</dim>
				</port>
			</output>
		</layer>
		<layer id="55" name="Conv_21/WithoutBiases" type="Convolution" version="opset1">
			<data strides="1,1" dilations="1,1" pads_begin="0,0" pads_end="0,0" output_padding="0,0"/>
			<input>
				<port id="0">
					<dim>1</dim>
					<dim>58</dim>
					<dim>40</dim>
					<dim>40</dim>
				</port>
				<port id="1">
					<dim>58</dim>
					<dim>58</dim>
					<dim>1</dim>
					<dim>1</dim>
				</port>
			</input>
			<output>
				<port id="2" precision="FP32">
					<dim>1</dim>
					<dim>58</dim>
					<dim>40</dim>
					<dim>40</dim>
				</port>
			</output>
		</layer>
		<layer id="56" name="Conv_21/Dims4976/copy_const" type="Const" version="opset1">
			<data offset="60860" size="232" shape="1,58,1,1" element_type="f32"/>
			<output>
				<port id="1" precision="FP32">
					<dim>1</dim>
					<dim>58</dim>
					<dim>1</dim>
					<dim>1</dim>
				</port>
			</output>
		</layer>
		<layer id="57" name="Conv_21" type="Add" version="opset1">
			<input>
				<port id="0">
					<dim>1</dim>
					<dim>58</dim>
					<dim>40</dim>
					<dim>40</dim>
				</port>
				<port id="1">
					<dim>1</dim>
					<dim>58</dim>
					<dim>1</dim>
					<dim>1</dim>
				</port>
			</input>
			<output>
				<port id="2" precision="FP32">
					<dim>1</dim>
					<dim>58</dim>
					<dim>40</dim>
					<dim>40</dim>
				</port>
			</output>
		</layer>
		<layer id="58" name="LeakyRelu_2213416/Cast_118953_const" type="Const" version="opset1">
			<data offset="2688" size="4" shape="1" element_type="f32"/>
			<output>
				<port id="1" precision="FP32">
					<dim>1</dim>
				</port>
			</output>
		</layer>
		<layer id="59" name="LeakyRelu_2213416" type="PReLU" version="opset1">
			<input>
				<port id="0">
					<dim>1</dim>
					<dim>58</dim>
					<dim>40</dim>
					<dim>40</dim>
				</port>
				<port id="1">
					<dim>1</dim>
				</port>
			</input>
			<output>
				<port id="2" precision="FP32">
					<dim>1</dim>
					<dim>58</dim>
					<dim>40</dim>
					<dim>40</dim>
				</port>
			</output>
		</layer>
		<layer id="60" name="Concat_23" type="Concat" version="opset1">
			<data axis="1"/>
			<input>
				<port id="0">
					<dim>1</dim>
					<dim>58</dim>
					<dim>40</dim>
					<dim>40</dim>
				</port>
				<port id="1">
					<dim>1</dim>
					<dim>58</dim>
					<dim>40</dim>
					<dim>40</dim>
				</port>
			</input>
			<output>
				<port id="2" precision="FP32">
					<dim>1</dim>
					<dim>116</dim>
					<dim>40</dim>
					<dim>40</dim>
				</port>
			</output>
		</layer>
		<layer id="61" name="Reshape_25/Cast_118923_const" type="Const" version="opset1">
			<data offset="31260" size="40" shape="5" element_type="i64"/>
			<output>
				<port id="1" precision="I64">
					<dim>5</dim>
				</port>
			</output>
		</layer>
		<layer id="62" name="Reshape_25" type="Reshape" version="opset1">
			<data special_zero="True"/>
			<input>
				<port id="0">
					<dim>1</dim>
					<dim>116</dim>
					<dim>40</dim>
					<dim>40</dim>
				</port>
				<port id="1">
					<dim>5</dim>
				</port>
			</input>
			<output>
				<port id="2" precision="FP32">
					<dim>1</dim>
					<dim>2</dim>
					<dim>58</dim>
					<dim>40</dim>
					<dim>40</dim>
				</port>
			</output>
		</layer>
		<layer id="63" name="Transpose_26/Cast_118979_const" type="Const" version="opset1">
			<data offset="31300" size="40" shape="5" element_type="i64"/>
			<output>
				<port id="1" precision="I64">
					<dim>5</dim>
				</port>
			</output>
		</layer>
		<layer id="64" name="Transpose_26" type="Transpose" version="opset1">
			<input>
				<port id="0">
					<dim>1</dim>
					<dim>2</dim>
					<dim>58</dim>
					<dim>40</dim>
					<dim>40</dim>
				</port>
				<port id="1">
					<dim>5</dim>
				</port>
			</input>
			<output>
				<port id="2" precision="FP32">
					<dim>1</dim>
					<dim>58</dim>
					<dim>2</dim>
					<dim>40</dim>
					<dim>40</dim>
				</port>
			</output>
		</layer>
		<layer id="65" name="Reshape_28/Cast_118975_const" type="Const" version="opset1">
			<data offset="31340" size="32" shape="4" element_type="i64"/>
			<output>
				<port id="1" precision="I64">
					<dim>4</dim>
				</port>
			</output>
		</layer>
		<layer id="66" name="Reshape_28" type="Reshape" version="opset1">
			<data special_zero="True"/>
			<input>
				<port id="0">
					<dim>1</dim>
					<dim>58</dim>
					<dim>2</dim>
					<dim>40</dim>
					<dim>40</dim>
				</port>
				<port id="1">
					<dim>4</dim>
				</port>
			</input>
			<output>
				<port id="2" precision="FP32">
					<dim>1</dim>
					<dim>116</dim>
					<dim>40</dim>
					<dim>40</dim>
				</port>
			</output>
		</layer>
		<layer id="67" name="Split_29/VariadicSplit_input_port_1/value/Output_0/Data__const" type="Const" version="opset1">
			<data offset="31372" size="8" shape="" element_type="i64"/>
			<output>
				<port id="1" precision="I64"/>
			</output>
		</layer>
		<layer id="68" name="Split_29/VariadicSplit_input_port_2/value/Output_0/Data__const" type="Const" version="opset1">
			<data offset="31380" size="16" shape="2" element_type="i64"/>
			<output>
				<port id="1" precision="I64">
					<dim>2</dim>
				</port>
			</output>
		</layer>
		<layer id="69" name="Split_29/VariadicSplit" type="VariadicSplit" version="opset1">
			<input>
				<port id="0">
					<dim>1</dim>
					<dim>116</dim>
					<dim>40</dim>
					<dim>40</dim>
				</port>
				<port id="1"/>
				<port id="2">
					<dim>2</dim>
				</port>
			</input>
			<output>
				<port id="3" precision="FP32">
					<dim>1</dim>
					<dim>58</dim>
					<dim>40</dim>
					<dim>40</dim>
				</port>
				<port id="4" precision="FP32">
					<dim>1</dim>
					<dim>58</dim>
					<dim>40</dim>
					<dim>40</dim>
				</port>
			</output>
		</layer>
		<layer id="70" name="onnx_initializer_node_872/Output_0/Data__const" type="Const" version="opset1">
			<data offset="61092" size="13456" shape="58,58,1,1" element_type="f32"/>
			<output>
				<port id="1" precision="FP32">
					<dim>58</dim>
					<dim>58</dim>
					<dim>1</dim>
					<dim>1</dim>
				</port>
			</output>
		</layer>
		<layer id="71" name="Conv_30/WithoutBiases" type="Convolution" version="opset1">
			<data strides="1,1" dilations="1,1" pads_begin="0,0" pads_end="0,0" output_padding="0,0"/>
			<input>
				<port id="0">
					<dim>1</dim>
					<dim>58</dim>
					<dim>40</dim>
					<dim>40</dim>
				</port>
				<port id="1">
					<dim>58</dim>
					<dim>58</dim>
					<dim>1</dim>
					<dim>1</dim>
				</port>
			</input>
			<output>
				<port id="2" precision="FP32">
					<dim>1</dim>
					<dim>58</dim>
					<dim>40</dim>
					<dim>40</dim>
				</port>
			</output>
		</layer>
		<layer id="72" name="Conv_30/Dims4838/copy_const" type="Const" version="opset1">
			<data offset="74548" size="232" shape="1,58,1,1" element_type="f32"/>
			<output>
				<port id="1" precision="FP32">
					<dim>1</dim>
					<dim>58</dim>
					<dim>1</dim>
					<dim>1</dim>
				</port>
			</output>
		</layer>
		<layer id="73" name="Conv_30" type="Add" version="opset1">
			<input>
				<port id="0">
					<dim>1</dim>
					<dim>58</dim>
					<dim>40</dim>
					<dim>40</dim>
				</port>
				<port id="1">
					<dim>1</dim>
					<dim>58</dim>
					<dim>1</dim>
					<dim>1</dim>
				</port>
			</input>
			<output>
				<port id="2" precision="FP32">
					<dim>1</dim>
					<dim>58</dim>
					<dim>40</dim>
					<dim>40</dim>
				</port>
			</output>
		</layer>
		<layer id="74" name="LeakyRelu_3113352/Cast_118817_const" type="Const" version="opset1">
			<data offset="2688" size="4" shape="1" element_type="f32"/>
			<output>
				<port id="1" precision="FP32">
					<dim>1</dim>
				</port>
			</output>
		</layer>
		<layer id="75" name="LeakyRelu_3113352" type="PReLU" version="opset1">
			<input>
				<port id="0">
					<dim>1</dim>
					<dim>58</dim>
					<dim>40</dim>
					<dim>40</dim>
				</port>
				<port id="1">
					<dim>1</dim>
				</port>
			</input>
			<output>
				<port id="2" precision="FP32">
					<dim>1</dim>
					<dim>58</dim>
					<dim>40</dim>
					<dim>40</dim>
				</port>
			</output>
		</layer>
		<layer id="76" name="1813818141_const" type="Const" version="opset1">
			<data offset="74780" size="2088" shape="58,1,1,3,3" element_type="f32"/>
			<output>
				<port id="1" precision="FP32">
					<dim>58</dim>
					<dim>1</dim>
					<dim>1</dim>
					<dim>3</dim>
					<dim>3</dim>
				</port>
			</output>
		</layer>
		<layer id="77" name="Conv_32/WithoutBiases" type="GroupConvolution" version="opset1">
			<data strides="1,1" dilations="1,1" pads_begin="1,1" pads_end="1,1" output_padding="0,0"/>
			<input>
				<port id="0">
					<dim>1</dim>
					<dim>58</dim>
					<dim>40</dim>
					<dim>40</dim>
				</port>
				<port id="1">
					<dim>58</dim>
					<dim>1</dim>
					<dim>1</dim>
					<dim>3</dim>
					<dim>3</dim>
				</port>
			</input>
			<output>
				<port id="2" precision="FP32">
					<dim>1</dim>
					<dim>58</dim>
					<dim>40</dim>
					<dim>40</dim>
				</port>
			</output>
		</layer>
		<layer id="78" name="Conv_32/Dims4778/copy_const" type="Const" version="opset1">
			<data offset="76868" size="232" shape="1,58,1,1" element_type="f32"/>
			<output>
				<port id="1" precision="FP32">
					<dim>1</dim>
					<dim>58</dim>
					<dim>1</dim>
					<dim>1</dim>
				</port>
			</output>
		</layer>
		<layer id="79" name="Conv_32" type="Add" version="opset1">
			<input>
				<port id="0">
					<dim>1</dim>
					<dim>58</dim>
					<dim>40</dim>
					<dim>40</dim>
				</port>
				<port id="1">
					<dim>1</dim>
					<dim>58</dim>
					<dim>1</dim>
					<dim>1</dim>
				</port>
			</input>
			<output>
				<port id="2" precision="FP32">
					<dim>1</dim>
					<dim>58</dim>
					<dim>40</dim>
					<dim>40</dim>
				</port>
			</output>
		</layer>
		<layer id="80" name="onnx_initializer_node_878/Output_0/Data__const" type="Const" version="opset1">
			<data offset="77100" size="13456" shape="58,58,1,1" element_type="f32"/>
			<output>
				<port id="1" precision="FP32">
					<dim>58</dim>
					<dim>58</dim>
					<dim>1</dim>
					<dim>1</dim>
				</port>
			</output>
		</layer>
		<layer id="81" name="Conv_33/WithoutBiases" type="Convolution" version="opset1">
			<data strides="1,1" dilations="1,1" pads_begin="0,0" pads_end="0,0" output_padding="0,0"/>
			<input>
				<port id="0">
					<dim>1</dim>
					<dim>58</dim>
					<dim>40</dim>
					<dim>40</dim>
				</port>
				<port id="1">
					<dim>58</dim>
					<dim>58</dim>
					<dim>1</dim>
					<dim>1</dim>
				</port>
			</input>
			<output>
				<port id="2" precision="FP32">
					<dim>1</dim>
					<dim>58</dim>
					<dim>40</dim>
					<dim>40</dim>
				</port>
			</output>
		</layer>
		<layer id="82" name="Conv_33/Dims5048/copy_const" type="Const" version="opset1">
			<data offset="90556" size="232" shape="1,58,1,1" element_type="f32"/>
			<output>
				<port id="1" precision="FP32">
					<dim>1</dim>
					<dim>58</dim>
					<dim>1</dim>
					<dim>1</dim>
				</port>
			</output>
		</layer>
		<layer id="83" name="Conv_33" type="Add" version="opset1">
			<input>
				<port id="0">
					<dim>1</dim>
					<dim>58</dim>
					<dim>40</dim>
					<dim>40</dim>
				</port>
				<port id="1">
					<dim>1</dim>
					<dim>58</dim>
					<dim>1</dim>
					<dim>1</dim>
				</port>
			</input>
			<output>
				<port id="2" precision="FP32">
					<dim>1</dim>
					<dim>58</dim>
					<dim>40</dim>
					<dim>40</dim>
				</port>
			</output>
		</layer>
		<layer id="84" name="LeakyRelu_3413428/Cast_118939_const" type="Const" version="opset1">
			<data offset="2688" size="4" shape="1" element_type="f32"/>
			<output>
				<port id="1" precision="FP32">
					<dim>1</dim>
				</port>
			</output>
		</layer>
		<layer id="85" name="LeakyRelu_3413428" type="PReLU" version="opset1">
			<input>
				<port id="0">
					<dim>1</dim>
					<dim>58</dim>
					<dim>40</dim>
					<dim>40</dim>
				</port>
				<port id="1">
					<dim>1</dim>
				</port>
			</input>
			<output>
				<port id="2" precision="FP32">
					<dim>1</dim>
					<dim>58</dim>
					<dim>40</dim>
					<dim>40</dim>
				</port>
			</output>
		</layer>
		<layer id="86" name="Concat_35" type="Concat" version="opset1">
			<data axis="1"/>
			<input>
				<port id="0">
					<dim>1</dim>
					<dim>58</dim>
					<dim>40</dim>
					<dim>40</dim>
				</port>
				<port id="1">
					<dim>1</dim>
					<dim>58</dim>
					<dim>40</dim>
					<dim>40</dim>
				</port>
			</input>
			<output>
				<port id="2" precision="FP32">
					<dim>1</dim>
					<dim>116</dim>
					<dim>40</dim>
					<dim>40</dim>
				</port>
			</output>
		</layer>
		<layer id="87" name="Reshape_37/Cast_119021_const" type="Const" version="opset1">
			<data offset="31260" size="40" shape="5" element_type="i64"/>
			<output>
				<port id="1" precision="I64">
					<dim>5</dim>
				</port>
			</output>
		</layer>
		<layer id="88" name="Reshape_37" type="Reshape" version="opset1">
			<data special_zero="True"/>
			<input>
				<port id="0">
					<dim>1</dim>
					<dim>116</dim>
					<dim>40</dim>
					<dim>40</dim>
				</port>
				<port id="1">
					<dim>5</dim>
				</port>
			</input>
			<output>
				<port id="2" precision="FP32">
					<dim>1</dim>
					<dim>2</dim>
					<dim>58</dim>
					<dim>40</dim>
					<dim>40</dim>
				</port>
			</output>
		</layer>
		<layer id="89" name="Transpose_38/Cast_118829_const" type="Const" version="opset1">
			<data offset="31300" size="40" shape="5" element_type="i64"/>
			<output>
				<port id="1" precision="I64">
					<dim>5</dim>
				</port>
			</output>
		</layer>
		<layer id="90" name="Transpose_38" type="Transpose" version="opset1">
			<input>
				<port id="0">
					<dim>1</dim>
					<dim>2</dim>
					<dim>58</dim>
					<dim>40</dim>
					<dim>40</dim>
				</port>
				<port id="1">
					<dim>5</dim>
				</port>
			</input>
			<output>
				<port id="2" precision="FP32">
					<dim>1</dim>
					<dim>58</dim>
					<dim>2</dim>
					<dim>40</dim>
					<dim>40</dim>
				</port>
			</output>
		</layer>
		<layer id="91" name="Reshape_40/Cast_118985_const" type="Const" version="opset1">
			<data offset="31340" size="32" shape="4" element_type="i64"/>
			<output>
				<port id="1" precision="I64">
					<dim>4</dim>
				</port>
			</output>
		</layer>
		<layer id="92" name="Reshape_40" type="Reshape" version="opset1">
			<data special_zero="True"/>
			<input>
				<port id="0">
					<dim>1</dim>
					<dim>58</dim>
					<dim>2</dim>
					<dim>40</dim>
					<dim>40</dim>
				</port>
				<port id="1">
					<dim>4</dim>
				</port>
			</input>
			<output>
				<port id="2" precision="FP32">
					<dim>1</dim>
					<dim>116</dim>
					<dim>40</dim>
					<dim>40</dim>
				</port>
			</output>
		</layer>
		<layer id="93" name="Split_41/VariadicSplit_input_port_1/value/Output_0/Data__const" type="Const" version="opset1">
			<data offset="31372" size="8" shape="" element_type="i64"/>
			<output>
				<port id="1" precision="I64"/>
			</output>
		</layer>
		<layer id="94" name="Split_41/VariadicSplit_input_port_2/value/Output_0/Data__const" type="Const" version="opset1">
			<data offset="31380" size="16" shape="2" element_type="i64"/>
			<output>
				<port id="1" precision="I64">
					<dim>2</dim>
				</port>
			</output>
		</layer>
		<layer id="95" name="Split_41/VariadicSplit" type="VariadicSplit" version="opset1">
			<input>
				<port id="0">
					<dim>1</dim>
					<dim>116</dim>
					<dim>40</dim>
					<dim>40</dim>
				</port>
				<port id="1"/>
				<port id="2">
					<dim>2</dim>
				</port>
			</input>
			<output>
				<port id="3" precision="FP32">
					<dim>1</dim>
					<dim>58</dim>
					<dim>40</dim>
					<dim>40</dim>
				</port>
				<port id="4" precision="FP32">
					<dim>1</dim>
					<dim>58</dim>
					<dim>40</dim>
					<dim>40</dim>
				</port>
			</output>
		</layer>
		<layer id="96" name="onnx_initializer_node_881/Output_0/Data__const" type="Const" version="opset1">
			<data offset="90788" size="13456" shape="58,58,1,1" element_type="f32"/>
			<output>
				<port id="1" precision="FP32">
					<dim>58</dim>
					<dim>58</dim>
					<dim>1</dim>
					<dim>1</dim>
				</port>
			</output>
		</layer>
		<layer id="97" name="Conv_42/WithoutBiases" type="Convolution" version="opset1">
			<data strides="1,1" dilations="1,1" pads_begin="0,0" pads_end="0,0" output_padding="0,0"/>
			<input>
				<port id="0">
					<dim>1</dim>
					<dim>58</dim>
					<dim>40</dim>
					<dim>40</dim>
				</port>
				<port id="1">
					<dim>58</dim>
					<dim>58</dim>
					<dim>1</dim>
					<dim>1</dim>
				</port>
			</input>
			<output>
				<port id="2" precision="FP32">
					<dim>1</dim>
					<dim>58</dim>
					<dim>40</dim>
					<dim>40</dim>
				</port>
			</output>
		</layer>
		<layer id="98" name="Conv_42/Dims4892/copy_const" type="Const" version="opset1">
			<data offset="104244" size="232" shape="1,58,1,1" element_type="f32"/>
			<output>
				<port id="1" precision="FP32">
					<dim>1</dim>
					<dim>58</dim>
					<dim>1</dim>
					<dim>1</dim>
				</port>
			</output>
		</layer>
		<layer id="99" name="Conv_42" type="Add" version="opset1">
			<input>
				<port id="0">
					<dim>1</dim>
					<dim>58</dim>
					<dim>40</dim>
					<dim>40</dim>
				</port>
				<port id="1">
					<dim>1</dim>
					<dim>58</dim>
					<dim>1</dim>
					<dim>1</dim>
				</port>
			</input>
			<output>
				<port id="2" precision="FP32">
					<dim>1</dim>
					<dim>58</dim>
					<dim>40</dim>
					<dim>40</dim>
				</port>
			</output>
		</layer>
		<layer id="100" name="LeakyRelu_4313252/Cast_118821_const" type="Const" version="opset1">
			<data offset="2688" size="4" shape="1" element_type="f32"/>
			<output>
				<port id="1" precision="FP32">
					<dim>1</dim>
				</port>
			</output>
		</layer>
		<layer id="101" name="LeakyRelu_4313252" type="PReLU" version="opset1">
			<input>
				<port id="0">
					<dim>1</dim>
					<dim>58</dim>
					<dim>40</dim>
					<dim>40</dim>
				</port>
				<port id="1">
					<dim>1</dim>
				</port>
			</input>
			<output>
				<port id="2" precision="FP32">
					<dim>1</dim>
					<dim>58</dim>
					<dim>40</dim>
					<dim>40</dim>
				</port>
			</output>
		</layer>
		<layer id="102" name="1814618149_const" type="Const" version="opset1">
			<data offset="104476" size="2088" shape="58,1,1,3,3" element_type="f32"/>
			<output>
				<port id="1" precision="FP32">
					<dim>58</dim>
					<dim>1</dim>
					<dim>1</dim>
					<dim>3</dim>
					<dim>3</dim>
				</port>
			</output>
		</layer>
		<layer id="103" name="Conv_44/WithoutBiases" type="GroupConvolution" version="opset1">
			<data strides="1,1" dilations="1,1" pads_begin="1,1" pads_end="1,1" output_padding="0,0"/>
			<input>
				<port id="0">
					<dim>1</dim>
					<dim>58</dim>
					<dim>40</dim>
					<dim>40</dim>
				</port>
				<port id="1">
					<dim>58</dim>
					<dim>1</dim>
					<dim>1</dim>
					<dim>3</dim>
					<dim>3</dim>
				</port>
			</input>
			<output>
				<port id="2" precision="FP32">
					<dim>1</dim>
					<dim>58</dim>
					<dim>40</dim>
					<dim>40</dim>
				</port>
			</output>
		</layer>
		<layer id="104" name="Conv_44/Dims4802/copy_const" type="Const" version="opset1">
			<data offset="106564" size="232" shape="1,58,1,1" element_type="f32"/>
			<output>
				<port id="1" precision="FP32">
					<dim>1</dim>
					<dim>58</dim>
					<dim>1</dim>
					<dim>1</dim>
				</port>
			</output>
		</layer>
		<layer id="105" name="Conv_44" type="Add" version="opset1">
			<input>
				<port id="0">
					<dim>1</dim>
					<dim>58</dim>
					<dim>40</dim>
					<dim>40</dim>
				</port>
				<port id="1">
					<dim>1</dim>
					<dim>58</dim>
					<dim>1</dim>
					<dim>1</dim>
				</port>
			</input>
			<output>
				<port id="2" precision="FP32">
					<dim>1</dim>
					<dim>58</dim>
					<dim>40</dim>
					<dim>40</dim>
				</port>
			</output>
		</layer>
		<layer id="106" name="onnx_initializer_node_887/Output_0/Data__const" type="Const" version="opset1">
			<data offset="106796" size="13456" shape="58,58,1,1" element_type="f32"/>
			<output>
				<port id="1" precision="FP32">
					<dim>58</dim>
					<dim>58</dim>
					<dim>1</dim>
					<dim>1</dim>
				</port>
			</output>
		</layer>
		<layer id="107" name="Conv_45/WithoutBiases" type="Convolution" version="opset1">
			<data strides="1,1" dilations="1,1" pads_begin="0,0" pads_end="0,0" output_padding="0,0"/>
			<input>
				<port id="0">
					<dim>1</dim>
					<dim>58</dim>
					<dim>40</dim>
					<dim>40</dim>
				</port>
				<port id="1">
					<dim>58</dim>
					<dim>58</dim>
					<dim>1</dim>
					<dim>1</dim>
				</port>
			</input>
			<output>
				<port id="2" precision="FP32">
					<dim>1</dim>
					<dim>58</dim>
					<dim>40</dim>
					<dim>40</dim>
				</port>
			</output>
		</layer>
		<layer id="108" name="Conv_45/Dims5000/copy_const" type="Const" version="opset1">
			<data offset="120252" size="232" shape="1,58,1,1" element_type="f32"/>
			<output>
				<port id="1" precision="FP32">
					<dim>1</dim>
					<dim>58</dim>
					<dim>1</dim>
					<dim>1</dim>
				</port>
			</output>
		</layer>
		<layer id="109" name="Conv_45" type="Add" version="opset1">
			<input>
				<port id="0">
					<dim>1</dim>
					<dim>58</dim>
					<dim>40</dim>
					<dim>40</dim>
				</port>
				<port id="1">
					<dim>1</dim>
					<dim>58</dim>
					<dim>1</dim>
					<dim>1</dim>
				</port>
			</input>
			<output>
				<port id="2" precision="FP32">
					<dim>1</dim>
					<dim>58</dim>
					<dim>40</dim>
					<dim>40</dim>
				</port>
			</output>
		</layer>
		<layer id="110" name="LeakyRelu_4613376/Cast_118819_const" type="Const" version="opset1">
			<data offset="2688" size="4" shape="1" element_type="f32"/>
			<output>
				<port id="1" precision="FP32">
					<dim>1</dim>
				</port>
			</output>
		</layer>
		<layer id="111" name="LeakyRelu_4613376" type="PReLU" version="opset1">
			<input>
				<port id="0">
					<dim>1</dim>
					<dim>58</dim>
					<dim>40</dim>
					<dim>40</dim>
				</port>
				<port id="1">
					<dim>1</dim>
				</port>
			</input>
			<output>
				<port id="2" precision="FP32">
					<dim>1</dim>
					<dim>58</dim>
					<dim>40</dim>
					<dim>40</dim>
				</port>
			</output>
		</layer>
		<layer id="112" name="Concat_47" type="Concat" version="opset1">
			<data axis="1"/>
			<input>
				<port id="0">
					<dim>1</dim>
					<dim>58</dim>
					<dim>40</dim>
					<dim>40</dim>
				</port>
				<port id="1">
					<dim>1</dim>
					<dim>58</dim>
					<dim>40</dim>
					<dim>40</dim>
				</port>
			</input>
			<output>
				<port id="2" precision="FP32">
					<dim>1</dim>
					<dim>116</dim>
					<dim>40</dim>
					<dim>40</dim>
				</port>
			</output>
		</layer>
		<layer id="113" name="Reshape_49/Cast_118833_const" type="Const" version="opset1">
			<data offset="31260" size="40" shape="5" element_type="i64"/>
			<output>
				<port id="1" precision="I64">
					<dim>5</dim>
				</port>
			</output>
		</layer>
		<layer id="114" name="Reshape_49" type="Reshape" version="opset1">
			<data special_zero="True"/>
			<input>
				<port id="0">
					<dim>1</dim>
					<dim>116</dim>
					<dim>40</dim>
					<dim>40</dim>
				</port>
				<port id="1">
					<dim>5</dim>
				</port>
			</input>
			<output>
				<port id="2" precision="FP32">
					<dim>1</dim>
					<dim>2</dim>
					<dim>58</dim>
					<dim>40</dim>
					<dim>40</dim>
				</port>
			</output>
		</layer>
		<layer id="115" name="Transpose_50/Cast_118895_const" type="Const" version="opset1">
			<data offset="31300" size="40" shape="5" element_type="i64"/>
			<output>
				<port id="1" precision="I64">
					<dim>5</dim>
				</port>
			</output>
		</layer>
		<layer id="116" name="Transpose_50" type="Transpose" version="opset1">
			<input>
				<port id="0">
					<dim>1</dim>
					<dim>2</dim>
					<dim>58</dim>
					<dim>40</dim>
					<dim>40</dim>
				</port>
				<port id="1">
					<dim>5</dim>
				</port>
			</input>
			<output>
				<port id="2" precision="FP32">
					<dim>1</dim>
					<dim>58</dim>
					<dim>2</dim>
					<dim>40</dim>
					<dim>40</dim>
				</port>
			</output>
		</layer>
		<layer id="117" name="Reshape_52/Cast_119023_const" type="Const" version="opset1">
			<data offset="31340" size="32" shape="4" element_type="i64"/>
			<output>
				<port id="1" precision="I64">
					<dim>4</dim>
				</port>
			</output>
		</layer>
		<layer id="118" name="Reshape_52" type="Reshape" version="opset1">
			<data special_zero="True"/>
			<input>
				<port id="0">
					<dim>1</dim>
					<dim>58</dim>
					<dim>2</dim>
					<dim>40</dim>
					<dim>40</dim>
				</port>
				<port id="1">
					<dim>4</dim>
				</port>
			</input>
			<output>
				<port id="2" precision="FP32">
					<dim>1</dim>
					<dim>116</dim>
					<dim>40</dim>
					<dim>40</dim>
				</port>
			</output>
		</layer>
		<layer id="119" name="onnx_initializer_node_fpn.lateral_convs.0.conv.weight/Output_0/Data__const" type="Const" version="opset1">
			<data offset="120484" size="44544" shape="96,116,1,1" element_type="f32"/>
			<output>
				<port id="1" precision="FP32">
					<dim>96</dim>
					<dim>116</dim>
					<dim>1</dim>
					<dim>1</dim>
				</port>
			</output>
		</layer>
		<layer id="120" name="Conv_201/WithoutBiases" type="Convolution" version="opset1">
			<data strides="1,1" dilations="1,1" pads_begin="0,0" pads_end="0,0" output_padding="0,0"/>
			<input>
				<port id="0">
					<dim>1</dim>
					<dim>116</dim>
					<dim>40</dim>
					<dim>40</dim>
				</port>
				<port id="1">
					<dim>96</dim>
					<dim>116</dim>
					<dim>1</dim>
					<dim>1</dim>
				</port>
			</input>
			<output>
				<port id="2" precision="FP32">
					<dim>1</dim>
					<dim>96</dim>
					<dim>40</dim>
					<dim>40</dim>
				</port>
			</output>
		</layer>
		<layer id="121" name="Conv_201/Dims4910/copy_const" type="Const" version="opset1">
			<data offset="165028" size="384" shape="1,96,1,1" element_type="f32"/>
			<output>
				<port id="1" precision="FP32">
					<dim>1</dim>
					<dim>96</dim>
					<dim>1</dim>
					<dim>1</dim>
				</port>
			</output>
		</layer>
		<layer id="122" name="Conv_201" type="Add" version="opset1">
			<input>
				<port id="0">
					<dim>1</dim>
					<dim>96</dim>
					<dim>40</dim>
					<dim>40</dim>
				</port>
				<port id="1">
					<dim>1</dim>
					<dim>96</dim>
					<dim>1</dim>
					<dim>1</dim>
				</port>
			</input>
			<output>
				<port id="2" precision="FP32">
					<dim>1</dim>
					<dim>96</dim>
					<dim>40</dim>
					<dim>40</dim>
				</port>
			</output>
		</layer>
		<layer id="123" name="1823018233_const" type="Const" version="opset1">
			<data offset="165412" size="4176" shape="116,1,1,3,3" element_type="f32"/>
			<output>
				<port id="1" precision="FP32">
					<dim>116</dim>
					<dim>1</dim>
					<dim>1</dim>
					<dim>3</dim>
					<dim>3</dim>
				</port>
			</output>
		</layer>
		<layer id="124" name="Conv_53/WithoutBiases" type="GroupConvolution" version="opset1">
			<data strides="2,2" dilations="1,1" pads_begin="1,1" pads_end="1,1" output_padding="0,0"/>
			<input>
				<port id="0">
					<dim>1</dim>
					<dim>116</dim>
					<dim>40</dim>
					<dim>40</dim>
				</port>
				<port id="1">
					<dim>116</dim>
					<dim>1</dim>
					<dim>1</dim>
					<dim>3</dim>
					<dim>3</dim>
				</port>
			</input>
			<output>
				<port id="2" precision="FP32">
					<dim>1</dim>
					<dim>116</dim>
					<dim>20</dim>
					<dim>20</dim>
				</port>
			</output>
		</layer>
		<layer id="125" name="Conv_53/Dims5168/copy_const" type="Const" version="opset1">
			<data offset="169588" size="464" shape="1,116,1,1" element_type="f32"/>
			<output>
				<port id="1" precision="FP32">
					<dim>1</dim>
					<dim>116</dim>
					<dim>1</dim>
					<dim>1</dim>
				</port>
			</output>
		</layer>
		<layer id="126" name="Conv_53" type="Add" version="opset1">
			<input>
				<port id="0">
					<dim>1</dim>
					<dim>116</dim>
					<dim>20</dim>
					<dim>20</dim>
				</port>
				<port id="1">
					<dim>1</dim>
					<dim>116</dim>
					<dim>1</dim>
					<dim>1</dim>
				</port>
			</input>
			<output>
				<port id="2" precision="FP32">
					<dim>1</dim>
					<dim>116</dim>
					<dim>20</dim>
					<dim>20</dim>
				</port>
			</output>
		</layer>
		<layer id="127" name="onnx_initializer_node_893/Output_0/Data__const" type="Const" version="opset1">
			<data offset="170052" size="53824" shape="116,116,1,1" element_type="f32"/>
			<output>
				<port id="1" precision="FP32">
					<dim>116</dim>
					<dim>116</dim>
					<dim>1</dim>
					<dim>1</dim>
				</port>
			</output>
		</layer>
		<layer id="128" name="Conv_54/WithoutBiases" type="Convolution" version="opset1">
			<data strides="1,1" dilations="1,1" pads_begin="0,0" pads_end="0,0" output_padding="0,0"/>
			<input>
				<port id="0">
					<dim>1</dim>
					<dim>116</dim>
					<dim>20</dim>
					<dim>20</dim>
				</port>
				<port id="1">
					<dim>116</dim>
					<dim>116</dim>
					<dim>1</dim>
					<dim>1</dim>
				</port>
			</input>
			<output>
				<port id="2" precision="FP32">
					<dim>1</dim>
					<dim>116</dim>
					<dim>20</dim>
					<dim>20</dim>
				</port>
			</output>
		</layer>
		<layer id="129" name="Conv_54/Dims5066/copy_const" type="Const" version="opset1">
			<data offset="223876" size="464" shape="1,116,1,1" element_type="f32"/>
			<output>
				<port id="1" precision="FP32">
					<dim>1</dim>
					<dim>116</dim>
					<dim>1</dim>
					<dim>1</dim>
				</port>
			</output>
		</layer>
		<layer id="130" name="Conv_54" type="Add" version="opset1">
			<input>
				<port id="0">
					<dim>1</dim>
					<dim>116</dim>
					<dim>20</dim>
					<dim>20</dim>
				</port>
				<port id="1">
					<dim>1</dim>
					<dim>116</dim>
					<dim>1</dim>
					<dim>1</dim>
				</port>
			</input>
			<output>
				<port id="2" precision="FP32">
					<dim>1</dim>
					<dim>116</dim>
					<dim>20</dim>
					<dim>20</dim>
				</port>
			</output>
		</layer>
		<layer id="131" name="LeakyRelu_5513276/Cast_118893_const" type="Const" version="opset1">
			<data offset="2688" size="4" shape="1" element_type="f32"/>
			<output>
				<port id="1" precision="FP32">
					<dim>1</dim>
				</port>
			</output>
		</layer>
		<layer id="132" name="LeakyRelu_5513276" type="PReLU" version="opset1">
			<input>
				<port id="0">
					<dim>1</dim>
					<dim>116</dim>
					<dim>20</dim>
					<dim>20</dim>
				</port>
				<port id="1">
					<dim>1</dim>
				</port>
			</input>
			<output>
				<port id="2" precision="FP32">
					<dim>1</dim>
					<dim>116</dim>
					<dim>20</dim>
					<dim>20</dim>
				</port>
			</output>
		</layer>
		<layer id="133" name="onnx_initializer_node_896/Output_0/Data__const" type="Const" version="opset1">
			<data offset="224340" size="53824" shape="116,116,1,1" element_type="f32"/>
			<output>
				<port id="1" precision="FP32">
					<dim>116</dim>
					<dim>116</dim>
					<dim>1</dim>
					<dim>1</dim>
				</port>
			</output>
		</layer>
		<layer id="134" name="Conv_56/WithoutBiases" type="Convolution" version="opset1">
			<data strides="1,1" dilations="1,1" pads_begin="0,0" pads_end="0,0" output_padding="0,0"/>
			<input>
				<port id="0">
					<dim>1</dim>
					<dim>116</dim>
					<dim>40</dim>
					<dim>40</dim>
				</port>
				<port id="1">
					<dim>116</dim>
					<dim>116</dim>
					<dim>1</dim>
					<dim>1</dim>
				</port>
			</input>
			<output>
				<port id="2" precision="FP32">
					<dim>1</dim>
					<dim>116</dim>
					<dim>40</dim>
					<dim>40</dim>
				</port>
			</output>
		</layer>
		<layer id="135" name="Conv_56/Dims5024/copy_const" type="Const" version="opset1">
			<data offset="278164" size="464" shape="1,116,1,1" element_type="f32"/>
			<output>
				<port id="1" precision="FP32">
					<dim>1</dim>
					<dim>116</dim>
					<dim>1</dim>
					<dim>1</dim>
				</port>
			</output>
		</layer>
		<layer id="136" name="Conv_56" type="Add" version="opset1">
			<input>
				<port id="0">
					<dim>1</dim>
					<dim>116</dim>
					<dim>40</dim>
					<dim>40</dim>
				</port>
				<port id="1">
					<dim>1</dim>
					<dim>116</dim>
					<dim>1</dim>
					<dim>1</dim>
				</port>
			</input>
			<output>
				<port id="2" precision="FP32">
					<dim>1</dim>
					<dim>116</dim>
					<dim>40</dim>
					<dim>40</dim>
				</port>
			</output>
		</layer>
		<layer id="137" name="LeakyRelu_5713304/Cast_118863_const" type="Const" version="opset1">
			<data offset="2688" size="4" shape="1" element_type="f32"/>
			<output>
				<port id="1" precision="FP32">
					<dim>1</dim>
				</port>
			</output>
		</layer>
		<layer id="138" name="LeakyRelu_5713304" type="PReLU" version="opset1">
			<input>
				<port id="0">
					<dim>1</dim>
					<dim>116</dim>
					<dim>40</dim>
					<dim>40</dim>
				</port>
				<port id="1">
					<dim>1</dim>
				</port>
			</input>
			<output>
				<port id="2" precision="FP32">
					<dim>1</dim>
					<dim>116</dim>
					<dim>40</dim>
					<dim>40</dim>
				</port>
			</output>
		</layer>
		<layer id="139" name="1819018193_const" type="Const" version="opset1">
			<data offset="278628" size="4176" shape="116,1,1,3,3" element_type="f32"/>
			<output>
				<port id="1" precision="FP32">
					<dim>116</dim>
					<dim>1</dim>
					<dim>1</dim>
					<dim>3</dim>
					<dim>3</dim>
				</port>
			</output>
		</layer>
		<layer id="140" name="Conv_58/WithoutBiases" type="GroupConvolution" version="opset1">
			<data strides="2,2" dilations="1,1" pads_begin="1,1" pads_end="1,1" output_padding="0,0"/>
			<input>
				<port id="0">
					<dim>1</dim>
					<dim>116</dim>
					<dim>40</dim>
					<dim>40</dim>
				</port>
				<port id="1">
					<dim>116</dim>
					<dim>1</dim>
					<dim>1</dim>
					<dim>3</dim>
					<dim>3</dim>
				</port>
			</input>
			<output>
				<port id="2" precision="FP32">
					<dim>1</dim>
					<dim>116</dim>
					<dim>20</dim>
					<dim>20</dim>
				</port>
			</output>
		</layer>
		<layer id="141" name="Conv_58/Dims4994/copy_const" type="Const" version="opset1">
			<data offset="282804" size="464" shape="1,116,1,1" element_type="f32"/>
			<output>
				<port id="1" precision="FP32">
					<dim>1</dim>
					<dim>116</dim>
					<dim>1</dim>
					<dim>1</dim>
				</port>
			</output>
		</layer>
		<layer id="142" name="Conv_58" type="Add" version="opset1">
			<input>
				<port id="0">
					<dim>1</dim>
					<dim>116</dim>
					<dim>20</dim>
					<dim>20</dim>
				</port>
				<port id="1">
					<dim>1</dim>
					<dim>116</dim>
					<dim>1</dim>
					<dim>1</dim>
				</port>
			</input>
			<output>
				<port id="2" precision="FP32">
					<dim>1</dim>
					<dim>116</dim>
					<dim>20</dim>
					<dim>20</dim>
				</port>
			</output>
		</layer>
		<layer id="143" name="onnx_initializer_node_902/Output_0/Data__const" type="Const" version="opset1">
			<data offset="283268" size="53824" shape="116,116,1,1" element_type="f32"/>
			<output>
				<port id="1" precision="FP32">
					<dim>116</dim>
					<dim>116</dim>
					<dim>1</dim>
					<dim>1</dim>
				</port>
			</output>
		</layer>
		<layer id="144" name="Conv_59/WithoutBiases" type="Convolution" version="opset1">
			<data strides="1,1" dilations="1,1" pads_begin="0,0" pads_end="0,0" output_padding="0,0"/>
			<input>
				<port id="0">
					<dim>1</dim>
					<dim>116</dim>
					<dim>20</dim>
					<dim>20</dim>
				</port>
				<port id="1">
					<dim>116</dim>
					<dim>116</dim>
					<dim>1</dim>
					<dim>1</dim>
				</port>
			</input>
			<output>
				<port id="2" precision="FP32">
					<dim>1</dim>
					<dim>116</dim>
					<dim>20</dim>
					<dim>20</dim>
				</port>
			</output>
		</layer>
		<layer id="145" name="Conv_59/Dims5018/copy_const" type="Const" version="opset1">
			<data offset="337092" size="464" shape="1,116,1,1" element_type="f32"/>
			<output>
				<port id="1" precision="FP32">
					<dim>1</dim>
					<dim>116</dim>
					<dim>1</dim>
					<dim>1</dim>
				</port>
			</output>
		</layer>
		<layer id="146" name="Conv_59" type="Add" version="opset1">
			<input>
				<port id="0">
					<dim>1</dim>
					<dim>116</dim>
					<dim>20</dim>
					<dim>20</dim>
				</port>
				<port id="1">
					<dim>1</dim>
					<dim>116</dim>
					<dim>1</dim>
					<dim>1</dim>
				</port>
			</input>
			<output>
				<port id="2" precision="FP32">
					<dim>1</dim>
					<dim>116</dim>
					<dim>20</dim>
					<dim>20</dim>
				</port>
			</output>
		</layer>
		<layer id="147" name="LeakyRelu_6013292/Cast_118999_const" type="Const" version="opset1">
			<data offset="2688" size="4" shape="1" element_type="f32"/>
			<output>
				<port id="1" precision="FP32">
					<dim>1</dim>
				</port>
			</output>
		</layer>
		<layer id="148" name="LeakyRelu_6013292" type="PReLU" version="opset1">
			<input>
				<port id="0">
					<dim>1</dim>
					<dim>116</dim>
					<dim>20</dim>
					<dim>20</dim>
				</port>
				<port id="1">
					<dim>1</dim>
				</port>
			</input>
			<output>
				<port id="2" precision="FP32">
					<dim>1</dim>
					<dim>116</dim>
					<dim>20</dim>
					<dim>20</dim>
				</port>
			</output>
		</layer>
		<layer id="149" name="Concat_61" type="Concat" version="opset1">
			<data axis="1"/>
			<input>
				<port id="0">
					<dim>1</dim>
					<dim>116</dim>
					<dim>20</dim>
					<dim>20</dim>
				</port>
				<port id="1">
					<dim>1</dim>
					<dim>116</dim>
					<dim>20</dim>
					<dim>20</dim>
				</port>
			</input>
			<output>
				<port id="2" precision="FP32">
					<dim>1</dim>
					<dim>232</dim>
					<dim>20</dim>
					<dim>20</dim>
				</port>
			</output>
		</layer>
		<layer id="150" name="Reshape_63/Cast_118931_const" type="Const" version="opset1">
			<data offset="337556" size="40" shape="5" element_type="i64"/>
			<output>
				<port id="1" precision="I64">
					<dim>5</dim>
				</port>
			</output>
		</layer>
		<layer id="151" name="Reshape_63" type="Reshape" version="opset1">
			<data special_zero="True"/>
			<input>
				<port id="0">
					<dim>1</dim>
					<dim>232</dim>
					<dim>20</dim>
					<dim>20</dim>
				</port>
				<port id="1">
					<dim>5</dim>
				</port>
			</input>
			<output>
				<port id="2" precision="FP32">
					<dim>1</dim>
					<dim>2</dim>
					<dim>116</dim>
					<dim>20</dim>
					<dim>20</dim>
				</port>
			</output>
		</layer>
		<layer id="152" name="Transpose_64/Cast_119035_const" type="Const" version="opset1">
			<data offset="31300" size="40" shape="5" element_type="i64"/>
			<output>
				<port id="1" precision="I64">
					<dim>5</dim>
				</port>
			</output>
		</layer>
		<layer id="153" name="Transpose_64" type="Transpose" version="opset1">
			<input>
				<port id="0">
					<dim>1</dim>
					<dim>2</dim>
					<dim>116</dim>
					<dim>20</dim>
					<dim>20</dim>
				</port>
				<port id="1">
					<dim>5</dim>
				</port>
			</input>
			<output>
				<port id="2" precision="FP32">
					<dim>1</dim>
					<dim>116</dim>
					<dim>2</dim>
					<dim>20</dim>
					<dim>20</dim>
				</port>
			</output>
		</layer>
		<layer id="154" name="Reshape_66/Cast_118855_const" type="Const" version="opset1">
			<data offset="337596" size="32" shape="4" element_type="i64"/>
			<output>
				<port id="1" precision="I64">
					<dim>4</dim>
				</port>
			</output>
		</layer>
		<layer id="155" name="Reshape_66" type="Reshape" version="opset1">
			<data special_zero="True"/>
			<input>
				<port id="0">
					<dim>1</dim>
					<dim>116</dim>
					<dim>2</dim>
					<dim>20</dim>
					<dim>20</dim>
				</port>
				<port id="1">
					<dim>4</dim>
				</port>
			</input>
			<output>
				<port id="2" precision="FP32">
					<dim>1</dim>
					<dim>232</dim>
					<dim>20</dim>
					<dim>20</dim>
				</port>
			</output>
		</layer>
		<layer id="156" name="Split_67/VariadicSplit_input_port_1/value/Output_0/Data__const" type="Const" version="opset1">
			<data offset="31372" size="8" shape="" element_type="i64"/>
			<output>
				<port id="1" precision="I64"/>
			</output>
		</layer>
		<layer id="157" name="Split_67/VariadicSplit_input_port_2/value/Output_0/Data__const" type="Const" version="opset1">
			<data offset="337628" size="16" shape="2" element_type="i64"/>
			<output>
				<port id="1" precision="I64">
					<dim>2</dim>
				</port>
			</output>
		</layer>
		<layer id="158" name="Split_67/VariadicSplit" type="VariadicSplit" version="opset1">
			<input>
				<port id="0">
					<dim>1</dim>
					<dim>232</dim>
					<dim>20</dim>
					<dim>20</dim>
				</port>
				<port id="1"/>
				<port id="2">
					<dim>2</dim>
				</port>
			</input>
			<output>
				<port id="3" precision="FP32">
					<dim>1</dim>
					<dim>116</dim>
					<dim>20</dim>
					<dim>20</dim>
				</port>
				<port id="4" precision="FP32">
					<dim>1</dim>
					<dim>116</dim>
					<dim>20</dim>
					<dim>20</dim>
				</port>
			</output>
		</layer>
		<layer id="159" name="onnx_initializer_node_905/Output_0/Data__const" type="Const" version="opset1">
			<data offset="337644" size="53824" shape="116,116,1,1" element_type="f32"/>
			<output>
				<port id="1" precision="FP32">
					<dim>116</dim>
					<dim>116</dim>
					<dim>1</dim>
					<dim>1</dim>
				</port>
			</output>
		</layer>
		<layer id="160" name="Conv_68/WithoutBiases" type="Convolution" version="opset1">
			<data strides="1,1" dilations="1,1" pads_begin="0,0" pads_end="0,0" output_padding="0,0"/>
			<input>
				<port id="0">
					<dim>1</dim>
					<dim>116</dim>
					<dim>20</dim>
					<dim>20</dim>
				</port>
				<port id="1">
					<dim>116</dim>
					<dim>116</dim>
					<dim>1</dim>
					<dim>1</dim>
				</port>
			</input>
			<output>
				<port id="2" precision="FP32">
					<dim>1</dim>
					<dim>116</dim>
					<dim>20</dim>
					<dim>20</dim>
				</port>
			</output>
		</layer>
		<layer id="161" name="Conv_68/Dims4940/copy_const" type="Const" version="opset1">
			<data offset="391468" size="464" shape="1,116,1,1" element_type="f32"/>
			<output>
				<port id="1" precision="FP32">
					<dim>1</dim>
					<dim>116</dim>
					<dim>1</dim>
					<dim>1</dim>
				</port>
			</output>
		</layer>
		<layer id="162" name="Conv_68" type="Add" version="opset1">
			<input>
				<port id="0">
					<dim>1</dim>
					<dim>116</dim>
					<dim>20</dim>
					<dim>20</dim>
				</port>
				<port id="1">
					<dim>1</dim>
					<dim>116</dim>
					<dim>1</dim>
					<dim>1</dim>
				</port>
			</input>
			<output>
				<port id="2" precision="FP32">
					<dim>1</dim>
					<dim>116</dim>
					<dim>20</dim>
					<dim>20</dim>
				</port>
			</output>
		</layer>
		<layer id="163" name="LeakyRelu_6913440/Cast_118945_const" type="Const" version="opset1">
			<data offset="2688" size="4" shape="1" element_type="f32"/>
			<output>
				<port id="1" precision="FP32">
					<dim>1</dim>
				</port>
			</output>
		</layer>
		<layer id="164" name="LeakyRelu_6913440" type="PReLU" version="opset1">
			<input>
				<port id="0">
					<dim>1</dim>
					<dim>116</dim>
					<dim>20</dim>
					<dim>20</dim>
				</port>
				<port id="1">
					<dim>1</dim>
				</port>
			</input>
			<output>
				<port id="2" precision="FP32">
					<dim>1</dim>
					<dim>116</dim>
					<dim>20</dim>
					<dim>20</dim>
				</port>
			</output>
		</layer>
		<layer id="165" name="1814218145_const" type="Const" version="opset1">
			<data offset="391932" size="4176" shape="116,1,1,3,3" element_type="f32"/>
			<output>
				<port id="1" precision="FP32">
					<dim>116</dim>
					<dim>1</dim>
					<dim>1</dim>
					<dim>3</dim>
					<dim>3</dim>
				</port>
			</output>
		</layer>
		<layer id="166" name="Conv_70/WithoutBiases" type="GroupConvolution" version="opset1">
			<data strides="1,1" dilations="1,1" pads_begin="1,1" pads_end="1,1" output_padding="0,0"/>
			<input>
				<port id="0">
					<dim>1</dim>
					<dim>116</dim>
					<dim>20</dim>
					<dim>20</dim>
				</port>
				<port id="1">
					<dim>116</dim>
					<dim>1</dim>
					<dim>1</dim>
					<dim>3</dim>
					<dim>3</dim>
				</port>
			</input>
			<output>
				<port id="2" precision="FP32">
					<dim>1</dim>
					<dim>116</dim>
					<dim>20</dim>
					<dim>20</dim>
				</port>
			</output>
		</layer>
		<layer id="167" name="Conv_70/Dims4790/copy_const" type="Const" version="opset1">
			<data offset="396108" size="464" shape="1,116,1,1" element_type="f32"/>
			<output>
				<port id="1" precision="FP32">
					<dim>1</dim>
					<dim>116</dim>
					<dim>1</dim>
					<dim>1</dim>
				</port>
			</output>
		</layer>
		<layer id="168" name="Conv_70" type="Add" version="opset1">
			<input>
				<port id="0">
					<dim>1</dim>
					<dim>116</dim>
					<dim>20</dim>
					<dim>20</dim>
				</port>
				<port id="1">
					<dim>1</dim>
					<dim>116</dim>
					<dim>1</dim>
					<dim>1</dim>
				</port>
			</input>
			<output>
				<port id="2" precision="FP32">
					<dim>1</dim>
					<dim>116</dim>
					<dim>20</dim>
					<dim>20</dim>
				</port>
			</output>
		</layer>
		<layer id="169" name="onnx_initializer_node_911/Output_0/Data__const" type="Const" version="opset1">
			<data offset="396572" size="53824" shape="116,116,1,1" element_type="f32"/>
			<output>
				<port id="1" precision="FP32">
					<dim>116</dim>
					<dim>116</dim>
					<dim>1</dim>
					<dim>1</dim>
				</port>
			</output>
		</layer>
		<layer id="170" name="Conv_71/WithoutBiases" type="Convolution" version="opset1">
			<data strides="1,1" dilations="1,1" pads_begin="0,0" pads_end="0,0" output_padding="0,0"/>
			<input>
				<port id="0">
					<dim>1</dim>
					<dim>116</dim>
					<dim>20</dim>
					<dim>20</dim>
				</port>
				<port id="1">
					<dim>116</dim>
					<dim>116</dim>
					<dim>1</dim>
					<dim>1</dim>
				</port>
			</input>
			<output>
				<port id="2" precision="FP32">
					<dim>1</dim>
					<dim>116</dim>
					<dim>20</dim>
					<dim>20</dim>
				</port>
			</output>
		</layer>
		<layer id="171" name="Conv_71/Dims4760/copy_const" type="Const" version="opset1">
			<data offset="450396" size="464" shape="1,116,1,1" element_type="f32"/>
			<output>
				<port id="1" precision="FP32">
					<dim>1</dim>
					<dim>116</dim>
					<dim>1</dim>
					<dim>1</dim>
				</port>
			</output>
		</layer>
		<layer id="172" name="Conv_71" type="Add" version="opset1">
			<input>
				<port id="0">
					<dim>1</dim>
					<dim>116</dim>
					<dim>20</dim>
					<dim>20</dim>
				</port>
				<port id="1">
					<dim>1</dim>
					<dim>116</dim>
					<dim>1</dim>
					<dim>1</dim>
				</port>
			</input>
			<output>
				<port id="2" precision="FP32">
					<dim>1</dim>
					<dim>116</dim>
					<dim>20</dim>
					<dim>20</dim>
				</port>
			</output>
		</layer>
		<layer id="173" name="LeakyRelu_7213404/Cast_118889_const" type="Const" version="opset1">
			<data offset="2688" size="4" shape="1" element_type="f32"/>
			<output>
				<port id="1" precision="FP32">
					<dim>1</dim>
				</port>
			</output>
		</layer>
		<layer id="174" name="LeakyRelu_7213404" type="PReLU" version="opset1">
			<input>
				<port id="0">
					<dim>1</dim>
					<dim>116</dim>
					<dim>20</dim>
					<dim>20</dim>
				</port>
				<port id="1">
					<dim>1</dim>
				</port>
			</input>
			<output>
				<port id="2" precision="FP32">
					<dim>1</dim>
					<dim>116</dim>
					<dim>20</dim>
					<dim>20</dim>
				</port>
			</output>
		</layer>
		<layer id="175" name="Concat_73" type="Concat" version="opset1">
			<data axis="1"/>
			<input>
				<port id="0">
					<dim>1</dim>
					<dim>116</dim>
					<dim>20</dim>
					<dim>20</dim>
				</port>
				<port id="1">
					<dim>1</dim>
					<dim>116</dim>
					<dim>20</dim>
					<dim>20</dim>
				</port>
			</input>
			<output>
				<port id="2" precision="FP32">
					<dim>1</dim>
					<dim>232</dim>
					<dim>20</dim>
					<dim>20</dim>
				</port>
			</output>
		</layer>
		<layer id="176" name="Reshape_75/Cast_119001_const" type="Const" version="opset1">
			<data offset="337556" size="40" shape="5" element_type="i64"/>
			<output>
				<port id="1" precision="I64">
					<dim>5</dim>
				</port>
			</output>
		</layer>
		<layer id="177" name="Reshape_75" type="Reshape" version="opset1">
			<data special_zero="True"/>
			<input>
				<port id="0">
					<dim>1</dim>
					<dim>232</dim>
					<dim>20</dim>
					<dim>20</dim>
				</port>
				<port id="1">
					<dim>5</dim>
				</port>
			</input>
			<output>
				<port id="2" precision="FP32">
					<dim>1</dim>
					<dim>2</dim>
					<dim>116</dim>
					<dim>20</dim>
					<dim>20</dim>
				</port>
			</output>
		</layer>
		<layer id="178" name="Transpose_76/Cast_118977_const" type="Const" version="opset1">
			<data offset="31300" size="40" shape="5" element_type="i64"/>
			<output>
				<port id="1" precision="I64">
					<dim>5</dim>
				</port>
			</output>
		</layer>
		<layer id="179" name="Transpose_76" type="Transpose" version="opset1">
			<input>
				<port id="0">
					<dim>1</dim>
					<dim>2</dim>
					<dim>116</dim>
					<dim>20</dim>
					<dim>20</dim>
				</port>
				<port id="1">
					<dim>5</dim>
				</port>
			</input>
			<output>
				<port id="2" precision="FP32">
					<dim>1</dim>
					<dim>116</dim>
					<dim>2</dim>
					<dim>20</dim>
					<dim>20</dim>
				</port>
			</output>
		</layer>
		<layer id="180" name="Reshape_78/Cast_118947_const" type="Const" version="opset1">
			<data offset="337596" size="32" shape="4" element_type="i64"/>
			<output>
				<port id="1" precision="I64">
					<dim>4</dim>
				</port>
			</output>
		</layer>
		<layer id="181" name="Reshape_78" type="Reshape" version="opset1">
			<data special_zero="True"/>
			<input>
				<port id="0">
					<dim>1</dim>
					<dim>116</dim>
					<dim>2</dim>
					<dim>20</dim>
					<dim>20</dim>
				</port>
				<port id="1">
					<dim>4</dim>
				</port>
			</input>
			<output>
				<port id="2" precision="FP32">
					<dim>1</dim>
					<dim>232</dim>
					<dim>20</dim>
					<dim>20</dim>
				</port>
			</output>
		</layer>
		<layer id="182" name="Split_79/VariadicSplit_input_port_1/value/Output_0/Data__const" type="Const" version="opset1">
			<data offset="31372" size="8" shape="" element_type="i64"/>
			<output>
				<port id="1" precision="I64"/>
			</output>
		</layer>
		<layer id="183" name="Split_79/VariadicSplit_input_port_2/value/Output_0/Data__const" type="Const" version="opset1">
			<data offset="337628" size="16" shape="2" element_type="i64"/>
			<output>
				<port id="1" precision="I64">
					<dim>2</dim>
				</port>
			</output>
		</layer>
		<layer id="184" name="Split_79/VariadicSplit" type="VariadicSplit" version="opset1">
			<input>
				<port id="0">
					<dim>1</dim>
					<dim>232</dim>
					<dim>20</dim>
					<dim>20</dim>
				</port>
				<port id="1"/>
				<port id="2">
					<dim>2</dim>
				</port>
			</input>
			<output>
				<port id="3" precision="FP32">
					<dim>1</dim>
					<dim>116</dim>
					<dim>20</dim>
					<dim>20</dim>
				</port>
				<port id="4" precision="FP32">
					<dim>1</dim>
					<dim>116</dim>
					<dim>20</dim>
					<dim>20</dim>
				</port>
			</output>
		</layer>
		<layer id="185" name="onnx_initializer_node_914/Output_0/Data__const" type="Const" version="opset1">
			<data offset="450860" size="53824" shape="116,116,1,1" element_type="f32"/>
			<output>
				<port id="1" precision="FP32">
					<dim>116</dim>
					<dim>116</dim>
					<dim>1</dim>
					<dim>1</dim>
				</port>
			</output>
		</layer>
		<layer id="186" name="Conv_80/WithoutBiases" type="Convolution" version="opset1">
			<data strides="1,1" dilations="1,1" pads_begin="0,0" pads_end="0,0" output_padding="0,0"/>
			<input>
				<port id="0">
					<dim>1</dim>
					<dim>116</dim>
					<dim>20</dim>
					<dim>20</dim>
				</port>
				<port id="1">
					<dim>116</dim>
					<dim>116</dim>
					<dim>1</dim>
					<dim>1</dim>
				</port>
			</input>
			<output>
				<port id="2" precision="FP32">
					<dim>1</dim>
					<dim>116</dim>
					<dim>20</dim>
					<dim>20</dim>
				</port>
			</output>
		</layer>
		<layer id="187" name="Conv_80/Dims5174/copy_const" type="Const" version="opset1">
			<data offset="504684" size="464" shape="1,116,1,1" element_type="f32"/>
			<output>
				<port id="1" precision="FP32">
					<dim>1</dim>
					<dim>116</dim>
					<dim>1</dim>
					<dim>1</dim>
				</port>
			</output>
		</layer>
		<layer id="188" name="Conv_80" type="Add" version="opset1">
			<input>
				<port id="0">
					<dim>1</dim>
					<dim>116</dim>
					<dim>20</dim>
					<dim>20</dim>
				</port>
				<port id="1">
					<dim>1</dim>
					<dim>116</dim>
					<dim>1</dim>
					<dim>1</dim>
				</port>
			</input>
			<output>
				<port id="2" precision="FP32">
					<dim>1</dim>
					<dim>116</dim>
					<dim>20</dim>
					<dim>20</dim>
				</port>
			</output>
		</layer>
		<layer id="189" name="LeakyRelu_8113380/Cast_119019_const" type="Const" version="opset1">
			<data offset="2688" size="4" shape="1" element_type="f32"/>
			<output>
				<port id="1" precision="FP32">
					<dim>1</dim>
				</port>
			</output>
		</layer>
		<layer id="190" name="LeakyRelu_8113380" type="PReLU" version="opset1">
			<input>
				<port id="0">
					<dim>1</dim>
					<dim>116</dim>
					<dim>20</dim>
					<dim>20</dim>
				</port>
				<port id="1">
					<dim>1</dim>
				</port>
			</input>
			<output>
				<port id="2" precision="FP32">
					<dim>1</dim>
					<dim>116</dim>
					<dim>20</dim>
					<dim>20</dim>
				</port>
			</output>
		</layer>
		<layer id="191" name="1816218165_const" type="Const" version="opset1">
			<data offset="505148" size="4176" shape="116,1,1,3,3" element_type="f32"/>
			<output>
				<port id="1" precision="FP32">
					<dim>116</dim>
					<dim>1</dim>
					<dim>1</dim>
					<dim>3</dim>
					<dim>3</dim>
				</port>
			</output>
		</layer>
		<layer id="192" name="Conv_82/WithoutBiases" type="GroupConvolution" version="opset1">
			<data strides="1,1" dilations="1,1" pads_begin="1,1" pads_end="1,1" output_padding="0,0"/>
			<input>
				<port id="0">
					<dim>1</dim>
					<dim>116</dim>
					<dim>20</dim>
					<dim>20</dim>
				</port>
				<port id="1">
					<dim>116</dim>
					<dim>1</dim>
					<dim>1</dim>
					<dim>3</dim>
					<dim>3</dim>
				</port>
			</input>
			<output>
				<port id="2" precision="FP32">
					<dim>1</dim>
					<dim>116</dim>
					<dim>20</dim>
					<dim>20</dim>
				</port>
			</output>
		</layer>
		<layer id="193" name="Conv_82/Dims4832/copy_const" type="Const" version="opset1">
			<data offset="509324" size="464" shape="1,116,1,1" element_type="f32"/>
			<output>
				<port id="1" precision="FP32">
					<dim>1</dim>
					<dim>116</dim>
					<dim>1</dim>
					<dim>1</dim>
				</port>
			</output>
		</layer>
		<layer id="194" name="Conv_82" type="Add" version="opset1">
			<input>
				<port id="0">
					<dim>1</dim>
					<dim>116</dim>
					<dim>20</dim>
					<dim>20</dim>
				</port>
				<port id="1">
					<dim>1</dim>
					<dim>116</dim>
					<dim>1</dim>
					<dim>1</dim>
				</port>
			</input>
			<output>
				<port id="2" precision="FP32">
					<dim>1</dim>
					<dim>116</dim>
					<dim>20</dim>
					<dim>20</dim>
				</port>
			</output>
		</layer>
		<layer id="195" name="onnx_initializer_node_920/Output_0/Data__const" type="Const" version="opset1">
			<data offset="509788" size="53824" shape="116,116,1,1" element_type="f32"/>
			<output>
				<port id="1" precision="FP32">
					<dim>116</dim>
					<dim>116</dim>
					<dim>1</dim>
					<dim>1</dim>
				</port>
			</output>
		</layer>
		<layer id="196" name="Conv_83/WithoutBiases" type="Convolution" version="opset1">
			<data strides="1,1" dilations="1,1" pads_begin="0,0" pads_end="0,0" output_padding="0,0"/>
			<input>
				<port id="0">
					<dim>1</dim>
					<dim>116</dim>
					<dim>20</dim>
					<dim>20</dim>
				</port>
				<port id="1">
					<dim>116</dim>
					<dim>116</dim>
					<dim>1</dim>
					<dim>1</dim>
				</port>
			</input>
			<output>
				<port id="2" precision="FP32">
					<dim>1</dim>
					<dim>116</dim>
					<dim>20</dim>
					<dim>20</dim>
				</port>
			</output>
		</layer>
		<layer id="197" name="Conv_83/Dims5120/copy_const" type="Const" version="opset1">
			<data offset="563612" size="464" shape="1,116,1,1" element_type="f32"/>
			<output>
				<port id="1" precision="FP32">
					<dim>1</dim>
					<dim>116</dim>
					<dim>1</dim>
					<dim>1</dim>
				</port>
			</output>
		</layer>
		<layer id="198" name="Conv_83" type="Add" version="opset1">
			<input>
				<port id="0">
					<dim>1</dim>
					<dim>116</dim>
					<dim>20</dim>
					<dim>20</dim>
				</port>
				<port id="1">
					<dim>1</dim>
					<dim>116</dim>
					<dim>1</dim>
					<dim>1</dim>
				</port>
			</input>
			<output>
				<port id="2" precision="FP32">
					<dim>1</dim>
					<dim>116</dim>
					<dim>20</dim>
					<dim>20</dim>
				</port>
			</output>
		</layer>
		<layer id="199" name="LeakyRelu_8413372/Cast_118879_const" type="Const" version="opset1">
			<data offset="2688" size="4" shape="1" element_type="f32"/>
			<output>
				<port id="1" precision="FP32">
					<dim>1</dim>
				</port>
			</output>
		</layer>
		<layer id="200" name="LeakyRelu_8413372" type="PReLU" version="opset1">
			<input>
				<port id="0">
					<dim>1</dim>
					<dim>116</dim>
					<dim>20</dim>
					<dim>20</dim>
				</port>
				<port id="1">
					<dim>1</dim>
				</port>
			</input>
			<output>
				<port id="2" precision="FP32">
					<dim>1</dim>
					<dim>116</dim>
					<dim>20</dim>
					<dim>20</dim>
				</port>
			</output>
		</layer>
		<layer id="201" name="Concat_85" type="Concat" version="opset1">
			<data axis="1"/>
			<input>
				<port id="0">
					<dim>1</dim>
					<dim>116</dim>
					<dim>20</dim>
					<dim>20</dim>
				</port>
				<port id="1">
					<dim>1</dim>
					<dim>116</dim>
					<dim>20</dim>
					<dim>20</dim>
				</port>
			</input>
			<output>
				<port id="2" precision="FP32">
					<dim>1</dim>
					<dim>232</dim>
					<dim>20</dim>
					<dim>20</dim>
				</port>
			</output>
		</layer>
		<layer id="202" name="Reshape_87/Cast_118957_const" type="Const" version="opset1">
			<data offset="337556" size="40" shape="5" element_type="i64"/>
			<output>
				<port id="1" precision="I64">
					<dim>5</dim>
				</port>
			</output>
		</layer>
		<layer id="203" name="Reshape_87" type="Reshape" version="opset1">
			<data special_zero="True"/>
			<input>
				<port id="0">
					<dim>1</dim>
					<dim>232</dim>
					<dim>20</dim>
					<dim>20</dim>
				</port>
				<port id="1">
					<dim>5</dim>
				</port>
			</input>
			<output>
				<port id="2" precision="FP32">
					<dim>1</dim>
					<dim>2</dim>
					<dim>116</dim>
					<dim>20</dim>
					<dim>20</dim>
				</port>
			</output>
		</layer>
		<layer id="204" name="Transpose_88/Cast_118925_const" type="Const" version="opset1">
			<data offset="31300" size="40" shape="5" element_type="i64"/>
			<output>
				<port id="1" precision="I64">
					<dim>5</dim>
				</port>
			</output>
		</layer>
		<layer id="205" name="Transpose_88" type="Transpose" version="opset1">
			<input>
				<port id="0">
					<dim>1</dim>
					<dim>2</dim>
					<dim>116</dim>
					<dim>20</dim>
					<dim>20</dim>
				</port>
				<port id="1">
					<dim>5</dim>
				</port>
			</input>
			<output>
				<port id="2" precision="FP32">
					<dim>1</dim>
					<dim>116</dim>
					<dim>2</dim>
					<dim>20</dim>
					<dim>20</dim>
				</port>
			</output>
		</layer>
		<layer id="206" name="Reshape_90/Cast_119029_const" type="Const" version="opset1">
			<data offset="337596" size="32" shape="4" element_type="i64"/>
			<output>
				<port id="1" precision="I64">
					<dim>4</dim>
				</port>
			</output>
		</layer>
		<layer id="207" name="Reshape_90" type="Reshape" version="opset1">
			<data special_zero="True"/>
			<input>
				<port id="0">
					<dim>1</dim>
					<dim>116</dim>
					<dim>2</dim>
					<dim>20</dim>
					<dim>20</dim>
				</port>
				<port id="1">
					<dim>4</dim>
				</port>
			</input>
			<output>
				<port id="2" precision="FP32">
					<dim>1</dim>
					<dim>232</dim>
					<dim>20</dim>
					<dim>20</dim>
				</port>
			</output>
		</layer>
		<layer id="208" name="Split_91/VariadicSplit_input_port_1/value/Output_0/Data__const" type="Const" version="opset1">
			<data offset="31372" size="8" shape="" element_type="i64"/>
			<output>
				<port id="1" precision="I64"/>
			</output>
		</layer>
		<layer id="209" name="Split_91/VariadicSplit_input_port_2/value/Output_0/Data__const" type="Const" version="opset1">
			<data offset="337628" size="16" shape="2" element_type="i64"/>
			<output>
				<port id="1" precision="I64">
					<dim>2</dim>
				</port>
			</output>
		</layer>
		<layer id="210" name="Split_91/VariadicSplit" type="VariadicSplit" version="opset1">
			<input>
				<port id="0">
					<dim>1</dim>
					<dim>232</dim>
					<dim>20</dim>
					<dim>20</dim>
				</port>
				<port id="1"/>
				<port id="2">
					<dim>2</dim>
				</port>
			</input>
			<output>
				<port id="3" precision="FP32">
					<dim>1</dim>
					<dim>116</dim>
					<dim>20</dim>
					<dim>20</dim>
				</port>
				<port id="4" precision="FP32">
					<dim>1</dim>
					<dim>116</dim>
					<dim>20</dim>
					<dim>20</dim>
				</port>
			</output>
		</layer>
		<layer id="211" name="onnx_initializer_node_923/Output_0/Data__const" type="Const" version="opset1">
			<data offset="564076" size="53824" shape="116,116,1,1" element_type="f32"/>
			<output>
				<port id="1" precision="FP32">
					<dim>116</dim>
					<dim>116</dim>
					<dim>1</dim>
					<dim>1</dim>
				</port>
			</output>
		</layer>
		<layer id="212" name="Conv_92/WithoutBiases" type="Convolution" version="opset1">
			<data strides="1,1" dilations="1,1" pads_begin="0,0" pads_end="0,0" output_padding="0,0"/>
			<input>
				<port id="0">
					<dim>1</dim>
					<dim>116</dim>
					<dim>20</dim>
					<dim>20</dim>
				</port>
				<port id="1">
					<dim>116</dim>
					<dim>116</dim>
					<dim>1</dim>
					<dim>1</dim>
				</port>
			</input>
			<output>
				<port id="2" precision="FP32">
					<dim>1</dim>
					<dim>116</dim>
					<dim>20</dim>
					<dim>20</dim>
				</port>
			</output>
		</layer>
		<layer id="213" name="Conv_92/Dims4922/copy_const" type="Const" version="opset1">
			<data offset="617900" size="464" shape="1,116,1,1" element_type="f32"/>
			<output>
				<port id="1" precision="FP32">
					<dim>1</dim>
					<dim>116</dim>
					<dim>1</dim>
					<dim>1</dim>
				</port>
			</output>
		</layer>
		<layer id="214" name="Conv_92" type="Add" version="opset1">
			<input>
				<port id="0">
					<dim>1</dim>
					<dim>116</dim>
					<dim>20</dim>
					<dim>20</dim>
				</port>
				<port id="1">
					<dim>1</dim>
					<dim>116</dim>
					<dim>1</dim>
					<dim>1</dim>
				</port>
			</input>
			<output>
				<port id="2" precision="FP32">
					<dim>1</dim>
					<dim>116</dim>
					<dim>20</dim>
					<dim>20</dim>
				</port>
			</output>
		</layer>
		<layer id="215" name="LeakyRelu_9313328/Cast_119037_const" type="Const" version="opset1">
			<data offset="2688" size="4" shape="1" element_type="f32"/>
			<output>
				<port id="1" precision="FP32">
					<dim>1</dim>
				</port>
			</output>
		</layer>
		<layer id="216" name="LeakyRelu_9313328" type="PReLU" version="opset1">
			<input>
				<port id="0">
					<dim>1</dim>
					<dim>116</dim>
					<dim>20</dim>
					<dim>20</dim>
				</port>
				<port id="1">
					<dim>1</dim>
				</port>
			</input>
			<output>
				<port id="2" precision="FP32">
					<dim>1</dim>
					<dim>116</dim>
					<dim>20</dim>
					<dim>20</dim>
				</port>
			</output>
		</layer>
		<layer id="217" name="1821418217_const" type="Const" version="opset1">
			<data offset="618364" size="4176" shape="116,1,1,3,3" element_type="f32"/>
			<output>
				<port id="1" precision="FP32">
					<dim>116</dim>
					<dim>1</dim>
					<dim>1</dim>
					<dim>3</dim>
					<dim>3</dim>
				</port>
			</output>
		</layer>
		<layer id="218" name="Conv_94/WithoutBiases" type="GroupConvolution" version="opset1">
			<data strides="1,1" dilations="1,1" pads_begin="1,1" pads_end="1,1" output_padding="0,0"/>
			<input>
				<port id="0">
					<dim>1</dim>
					<dim>116</dim>
					<dim>20</dim>
					<dim>20</dim>
				</port>
				<port id="1">
					<dim>116</dim>
					<dim>1</dim>
					<dim>1</dim>
					<dim>3</dim>
					<dim>3</dim>
				</port>
			</input>
			<output>
				<port id="2" precision="FP32">
					<dim>1</dim>
					<dim>116</dim>
					<dim>20</dim>
					<dim>20</dim>
				</port>
			</output>
		</layer>
		<layer id="219" name="Conv_94/Dims5090/copy_const" type="Const" version="opset1">
			<data offset="622540" size="464" shape="1,116,1,1" element_type="f32"/>
			<output>
				<port id="1" precision="FP32">
					<dim>1</dim>
					<dim>116</dim>
					<dim>1</dim>
					<dim>1</dim>
				</port>
			</output>
		</layer>
		<layer id="220" name="Conv_94" type="Add" version="opset1">
			<input>
				<port id="0">
					<dim>1</dim>
					<dim>116</dim>
					<dim>20</dim>
					<dim>20</dim>
				</port>
				<port id="1">
					<dim>1</dim>
					<dim>116</dim>
					<dim>1</dim>
					<dim>1</dim>
				</port>
			</input>
			<output>
				<port id="2" precision="FP32">
					<dim>1</dim>
					<dim>116</dim>
					<dim>20</dim>
					<dim>20</dim>
				</port>
			</output>
		</layer>
		<layer id="221" name="onnx_initializer_node_929/Output_0/Data__const" type="Const" version="opset1">
			<data offset="623004" size="53824" shape="116,116,1,1" element_type="f32"/>
			<output>
				<port id="1" precision="FP32">
					<dim>116</dim>
					<dim>116</dim>
					<dim>1</dim>
					<dim>1</dim>
				</port>
			</output>
		</layer>
		<layer id="222" name="Conv_95/WithoutBiases" type="Convolution" version="opset1">
			<data strides="1,1" dilations="1,1" pads_begin="0,0" pads_end="0,0" output_padding="0,0"/>
			<input>
				<port id="0">
					<dim>1</dim>
					<dim>116</dim>
					<dim>20</dim>
					<dim>20</dim>
				</port>
				<port id="1">
					<dim>116</dim>
					<dim>116</dim>
					<dim>1</dim>
					<dim>1</dim>
				</port>
			</input>
			<output>
				<port id="2" precision="FP32">
					<dim>1</dim>
					<dim>116</dim>
					<dim>20</dim>
					<dim>20</dim>
				</port>
			</output>
		</layer>
		<layer id="223" name="Conv_95/Dims5186/copy_const" type="Const" version="opset1">
			<data offset="676828" size="464" shape="1,116,1,1" element_type="f32"/>
			<output>
				<port id="1" precision="FP32">
					<dim>1</dim>
					<dim>116</dim>
					<dim>1</dim>
					<dim>1</dim>
				</port>
			</output>
		</layer>
		<layer id="224" name="Conv_95" type="Add" version="opset1">
			<input>
				<port id="0">
					<dim>1</dim>
					<dim>116</dim>
					<dim>20</dim>
					<dim>20</dim>
				</port>
				<port id="1">
					<dim>1</dim>
					<dim>116</dim>
					<dim>1</dim>
					<dim>1</dim>
				</port>
			</input>
			<output>
				<port id="2" precision="FP32">
					<dim>1</dim>
					<dim>116</dim>
					<dim>20</dim>
					<dim>20</dim>
				</port>
			</output>
		</layer>
		<layer id="225" name="LeakyRelu_9613396/Cast_119009_const" type="Const" version="opset1">
			<data offset="2688" size="4" shape="1" element_type="f32"/>
			<output>
				<port id="1" precision="FP32">
					<dim>1</dim>
				</port>
			</output>
		</layer>
		<layer id="226" name="LeakyRelu_9613396" type="PReLU" version="opset1">
			<input>
				<port id="0">
					<dim>1</dim>
					<dim>116</dim>
					<dim>20</dim>
					<dim>20</dim>
				</port>
				<port id="1">
					<dim>1</dim>
				</port>
			</input>
			<output>
				<port id="2" precision="FP32">
					<dim>1</dim>
					<dim>116</dim>
					<dim>20</dim>
					<dim>20</dim>
				</port>
			</output>
		</layer>
		<layer id="227" name="Concat_97" type="Concat" version="opset1">
			<data axis="1"/>
			<input>
				<port id="0">
					<dim>1</dim>
					<dim>116</dim>
					<dim>20</dim>
					<dim>20</dim>
				</port>
				<port id="1">
					<dim>1</dim>
					<dim>116</dim>
					<dim>20</dim>
					<dim>20</dim>
				</port>
			</input>
			<output>
				<port id="2" precision="FP32">
					<dim>1</dim>
					<dim>232</dim>
					<dim>20</dim>
					<dim>20</dim>
				</port>
			</output>
		</layer>
		<layer id="228" name="Reshape_99/Cast_118847_const" type="Const" version="opset1">
			<data offset="337556" size="40" shape="5" element_type="i64"/>
			<output>
				<port id="1" precision="I64">
					<dim>5</dim>
				</port>
			</output>
		</layer>
		<layer id="229" name="Reshape_99" type="Reshape" version="opset1">
			<data special_zero="True"/>
			<input>
				<port id="0">
					<dim>1</dim>
					<dim>232</dim>
					<dim>20</dim>
					<dim>20</dim>
				</port>
				<port id="1">
					<dim>5</dim>
				</port>
			</input>
			<output>
				<port id="2" precision="FP32">
					<dim>1</dim>
					<dim>2</dim>
					<dim>116</dim>
					<dim>20</dim>
					<dim>20</dim>
				</port>
			</output>
		</layer>
		<layer id="230" name="Transpose_100/Cast_118839_const" type="Const" version="opset1">
			<data offset="31300" size="40" shape="5" element_type="i64"/>
			<output>
				<port id="1" precision="I64">
					<dim>5</dim>
				</port>
			</output>
		</layer>
		<layer id="231" name="Transpose_100" type="Transpose" version="opset1">
			<input>
				<port id="0">
					<dim>1</dim>
					<dim>2</dim>
					<dim>116</dim>
					<dim>20</dim>
					<dim>20</dim>
				</port>
				<port id="1">
					<dim>5</dim>
				</port>
			</input>
			<output>
				<port id="2" precision="FP32">
					<dim>1</dim>
					<dim>116</dim>
					<dim>2</dim>
					<dim>20</dim>
					<dim>20</dim>
				</port>
			</output>
		</layer>
		<layer id="232" name="Reshape_102/Cast_118917_const" type="Const" version="opset1">
			<data offset="337596" size="32" shape="4" element_type="i64"/>
			<output>
				<port id="1" precision="I64">
					<dim>4</dim>
				</port>
			</output>
		</layer>
		<layer id="233" name="Reshape_102" type="Reshape" version="opset1">
			<data special_zero="True"/>
			<input>
				<port id="0">
					<dim>1</dim>
					<dim>116</dim>
					<dim>2</dim>
					<dim>20</dim>
					<dim>20</dim>
				</port>
				<port id="1">
					<dim>4</dim>
				</port>
			</input>
			<output>
				<port id="2" precision="FP32">
					<dim>1</dim>
					<dim>232</dim>
					<dim>20</dim>
					<dim>20</dim>
				</port>
			</output>
		</layer>
		<layer id="234" name="Split_103/VariadicSplit_input_port_1/value/Output_0/Data__const" type="Const" version="opset1">
			<data offset="31372" size="8" shape="" element_type="i64"/>
			<output>
				<port id="1" precision="I64"/>
			</output>
		</layer>
		<layer id="235" name="Split_103/VariadicSplit_input_port_2/value/Output_0/Data__const" type="Const" version="opset1">
			<data offset="337628" size="16" shape="2" element_type="i64"/>
			<output>
				<port id="1" precision="I64">
					<dim>2</dim>
				</port>
			</output>
		</layer>
		<layer id="236" name="Split_103/VariadicSplit" type="VariadicSplit" version="opset1">
			<input>
				<port id="0">
					<dim>1</dim>
					<dim>232</dim>
					<dim>20</dim>
					<dim>20</dim>
				</port>
				<port id="1"/>
				<port id="2">
					<dim>2</dim>
				</port>
			</input>
			<output>
				<port id="3" precision="FP32">
					<dim>1</dim>
					<dim>116</dim>
					<dim>20</dim>
					<dim>20</dim>
				</port>
				<port id="4" precision="FP32">
					<dim>1</dim>
					<dim>116</dim>
					<dim>20</dim>
					<dim>20</dim>
				</port>
			</output>
		</layer>
		<layer id="237" name="onnx_initializer_node_932/Output_0/Data__const" type="Const" version="opset1">
			<data offset="677292" size="53824" shape="116,116,1,1" element_type="f32"/>
			<output>
				<port id="1" precision="FP32">
					<dim>116</dim>
					<dim>116</dim>
					<dim>1</dim>
					<dim>1</dim>
				</port>
			</output>
		</layer>
		<layer id="238" name="Conv_104/WithoutBiases" type="Convolution" version="opset1">
			<data strides="1,1" dilations="1,1" pads_begin="0,0" pads_end="0,0" output_padding="0,0"/>
			<input>
				<port id="0">
					<dim>1</dim>
					<dim>116</dim>
					<dim>20</dim>
					<dim>20</dim>
				</port>
				<port id="1">
					<dim>116</dim>
					<dim>116</dim>
					<dim>1</dim>
					<dim>1</dim>
				</port>
			</input>
			<output>
				<port id="2" precision="FP32">
					<dim>1</dim>
					<dim>116</dim>
					<dim>20</dim>
					<dim>20</dim>
				</port>
			</output>
		</layer>
		<layer id="239" name="Conv_104/Dims5192/copy_const" type="Const" version="opset1">
			<data offset="731116" size="464" shape="1,116,1,1" element_type="f32"/>
			<output>
				<port id="1" precision="FP32">
					<dim>1</dim>
					<dim>116</dim>
					<dim>1</dim>
					<dim>1</dim>
				</port>
			</output>
		</layer>
		<layer id="240" name="Conv_104" type="Add" version="opset1">
			<input>
				<port id="0">
					<dim>1</dim>
					<dim>116</dim>
					<dim>20</dim>
					<dim>20</dim>
				</port>
				<port id="1">
					<dim>1</dim>
					<dim>116</dim>
					<dim>1</dim>
					<dim>1</dim>
				</port>
			</input>
			<output>
				<port id="2" precision="FP32">
					<dim>1</dim>
					<dim>116</dim>
					<dim>20</dim>
					<dim>20</dim>
				</port>
			</output>
		</layer>
		<layer id="241" name="LeakyRelu_10513412/Cast_118861_const" type="Const" version="opset1">
			<data offset="2688" size="4" shape="1" element_type="f32"/>
			<output>
				<port id="1" precision="FP32">
					<dim>1</dim>
				</port>
			</output>
		</layer>
		<layer id="242" name="LeakyRelu_10513412" type="PReLU" version="opset1">
			<input>
				<port id="0">
					<dim>1</dim>
					<dim>116</dim>
					<dim>20</dim>
					<dim>20</dim>
				</port>
				<port id="1">
					<dim>1</dim>
				</port>
			</input>
			<output>
				<port id="2" precision="FP32">
					<dim>1</dim>
					<dim>116</dim>
					<dim>20</dim>
					<dim>20</dim>
				</port>
			</output>
		</layer>
		<layer id="243" name="1818618189_const" type="Const" version="opset1">
			<data offset="731580" size="4176" shape="116,1,1,3,3" element_type="f32"/>
			<output>
				<port id="1" precision="FP32">
					<dim>116</dim>
					<dim>1</dim>
					<dim>1</dim>
					<dim>3</dim>
					<dim>3</dim>
				</port>
			</output>
		</layer>
		<layer id="244" name="Conv_106/WithoutBiases" type="GroupConvolution" version="opset1">
			<data strides="1,1" dilations="1,1" pads_begin="1,1" pads_end="1,1" output_padding="0,0"/>
			<input>
				<port id="0">
					<dim>1</dim>
					<dim>116</dim>
					<dim>20</dim>
					<dim>20</dim>
				</port>
				<port id="1">
					<dim>116</dim>
					<dim>1</dim>
					<dim>1</dim>
					<dim>3</dim>
					<dim>3</dim>
				</port>
			</input>
			<output>
				<port id="2" precision="FP32">
					<dim>1</dim>
					<dim>116</dim>
					<dim>20</dim>
					<dim>20</dim>
				</port>
			</output>
		</layer>
		<layer id="245" name="Conv_106/Dims4988/copy_const" type="Const" version="opset1">
			<data offset="735756" size="464" shape="1,116,1,1" element_type="f32"/>
			<output>
				<port id="1" precision="FP32">
					<dim>1</dim>
					<dim>116</dim>
					<dim>1</dim>
					<dim>1</dim>
				</port>
			</output>
		</layer>
		<layer id="246" name="Conv_106" type="Add" version="opset1">
			<input>
				<port id="0">
					<dim>1</dim>
					<dim>116</dim>
					<dim>20</dim>
					<dim>20</dim>
				</port>
				<port id="1">
					<dim>1</dim>
					<dim>116</dim>
					<dim>1</dim>
					<dim>1</dim>
				</port>
			</input>
			<output>
				<port id="2" precision="FP32">
					<dim>1</dim>
					<dim>116</dim>
					<dim>20</dim>
					<dim>20</dim>
				</port>
			</output>
		</layer>
		<layer id="247" name="onnx_initializer_node_938/Output_0/Data__const" type="Const" version="opset1">
			<data offset="736220" size="53824" shape="116,116,1,1" element_type="f32"/>
			<output>
				<port id="1" precision="FP32">
					<dim>116</dim>
					<dim>116</dim>
					<dim>1</dim>
					<dim>1</dim>
				</port>
			</output>
		</layer>
		<layer id="248" name="Conv_107/WithoutBiases" type="Convolution" version="opset1">
			<data strides="1,1" dilations="1,1" pads_begin="0,0" pads_end="0,0" output_padding="0,0"/>
			<input>
				<port id="0">
					<dim>1</dim>
					<dim>116</dim>
					<dim>20</dim>
					<dim>20</dim>
				</port>
				<port id="1">
					<dim>116</dim>
					<dim>116</dim>
					<dim>1</dim>
					<dim>1</dim>
				</port>
			</input>
			<output>
				<port id="2" precision="FP32">
					<dim>1</dim>
					<dim>116</dim>
					<dim>20</dim>
					<dim>20</dim>
				</port>
			</output>
		</layer>
		<layer id="249" name="Conv_107/Dims4868/copy_const" type="Const" version="opset1">
			<data offset="790044" size="464" shape="1,116,1,1" element_type="f32"/>
			<output>
				<port id="1" precision="FP32">
					<dim>1</dim>
					<dim>116</dim>
					<dim>1</dim>
					<dim>1</dim>
				</port>
			</output>
		</layer>
		<layer id="250" name="Conv_107" type="Add" version="opset1">
			<input>
				<port id="0">
					<dim>1</dim>
					<dim>116</dim>
					<dim>20</dim>
					<dim>20</dim>
				</port>
				<port id="1">
					<dim>1</dim>
					<dim>116</dim>
					<dim>1</dim>
					<dim>1</dim>
				</port>
			</input>
			<output>
				<port id="2" precision="FP32">
					<dim>1</dim>
					<dim>116</dim>
					<dim>20</dim>
					<dim>20</dim>
				</port>
			</output>
		</layer>
		<layer id="251" name="LeakyRelu_10813296/Cast_118911_const" type="Const" version="opset1">
			<data offset="2688" size="4" shape="1" element_type="f32"/>
			<output>
				<port id="1" precision="FP32">
					<dim>1</dim>
				</port>
			</output>
		</layer>
		<layer id="252" name="LeakyRelu_10813296" type="PReLU" version="opset1">
			<input>
				<port id="0">
					<dim>1</dim>
					<dim>116</dim>
					<dim>20</dim>
					<dim>20</dim>
				</port>
				<port id="1">
					<dim>1</dim>
				</port>
			</input>
			<output>
				<port id="2" precision="FP32">
					<dim>1</dim>
					<dim>116</dim>
					<dim>20</dim>
					<dim>20</dim>
				</port>
			</output>
		</layer>
		<layer id="253" name="Concat_109" type="Concat" version="opset1">
			<data axis="1"/>
			<input>
				<port id="0">
					<dim>1</dim>
					<dim>116</dim>
					<dim>20</dim>
					<dim>20</dim>
				</port>
				<port id="1">
					<dim>1</dim>
					<dim>116</dim>
					<dim>20</dim>
					<dim>20</dim>
				</port>
			</input>
			<output>
				<port id="2" precision="FP32">
					<dim>1</dim>
					<dim>232</dim>
					<dim>20</dim>
					<dim>20</dim>
				</port>
			</output>
		</layer>
		<layer id="254" name="Reshape_111/Cast_119017_const" type="Const" version="opset1">
			<data offset="337556" size="40" shape="5" element_type="i64"/>
			<output>
				<port id="1" precision="I64">
					<dim>5</dim>
				</port>
			</output>
		</layer>
		<layer id="255" name="Reshape_111" type="Reshape" version="opset1">
			<data special_zero="True"/>
			<input>
				<port id="0">
					<dim>1</dim>
					<dim>232</dim>
					<dim>20</dim>
					<dim>20</dim>
				</port>
				<port id="1">
					<dim>5</dim>
				</port>
			</input>
			<output>
				<port id="2" precision="FP32">
					<dim>1</dim>
					<dim>2</dim>
					<dim>116</dim>
					<dim>20</dim>
					<dim>20</dim>
				</port>
			</output>
		</layer>
		<layer id="256" name="Transpose_112/Cast_118963_const" type="Const" version="opset1">
			<data offset="31300" size="40" shape="5" element_type="i64"/>
			<output>
				<port id="1" precision="I64">
					<dim>5</dim>
				</port>
			</output>
		</layer>
		<layer id="257" name="Transpose_112" type="Transpose" version="opset1">
			<input>
				<port id="0">
					<dim>1</dim>
					<dim>2</dim>
					<dim>116</dim>
					<dim>20</dim>
					<dim>20</dim>
				</port>
				<port id="1">
					<dim>5</dim>
				</port>
			</input>
			<output>
				<port id="2" precision="FP32">
					<dim>1</dim>
					<dim>116</dim>
					<dim>2</dim>
					<dim>20</dim>
					<dim>20</dim>
				</port>
			</output>
		</layer>
		<layer id="258" name="Reshape_114/Cast_118955_const" type="Const" version="opset1">
			<data offset="337596" size="32" shape="4" element_type="i64"/>
			<output>
				<port id="1" precision="I64">
					<dim>4</dim>
				</port>
			</output>
		</layer>
		<layer id="259" name="Reshape_114" type="Reshape" version="opset1">
			<data special_zero="True"/>
			<input>
				<port id="0">
					<dim>1</dim>
					<dim>116</dim>
					<dim>2</dim>
					<dim>20</dim>
					<dim>20</dim>
				</port>
				<port id="1">
					<dim>4</dim>
				</port>
			</input>
			<output>
				<port id="2" precision="FP32">
					<dim>1</dim>
					<dim>232</dim>
					<dim>20</dim>
					<dim>20</dim>
				</port>
			</output>
		</layer>
		<layer id="260" name="Split_115/VariadicSplit_input_port_1/value/Output_0/Data__const" type="Const" version="opset1">
			<data offset="31372" size="8" shape="" element_type="i64"/>
			<output>
				<port id="1" precision="I64"/>
			</output>
		</layer>
		<layer id="261" name="Split_115/VariadicSplit_input_port_2/value/Output_0/Data__const" type="Const" version="opset1">
			<data offset="337628" size="16" shape="2" element_type="i64"/>
			<output>
				<port id="1" precision="I64">
					<dim>2</dim>
				</port>
			</output>
		</layer>
		<layer id="262" name="Split_115/VariadicSplit" type="VariadicSplit" version="opset1">
			<input>
				<port id="0">
					<dim>1</dim>
					<dim>232</dim>
					<dim>20</dim>
					<dim>20</dim>
				</port>
				<port id="1"/>
				<port id="2">
					<dim>2</dim>
				</port>
			</input>
			<output>
				<port id="3" precision="FP32">
					<dim>1</dim>
					<dim>116</dim>
					<dim>20</dim>
					<dim>20</dim>
				</port>
				<port id="4" precision="FP32">
					<dim>1</dim>
					<dim>116</dim>
					<dim>20</dim>
					<dim>20</dim>
				</port>
			</output>
		</layer>
		<layer id="263" name="onnx_initializer_node_941/Output_0/Data__const" type="Const" version="opset1">
			<data offset="790508" size="53824" shape="116,116,1,1" element_type="f32"/>
			<output>
				<port id="1" precision="FP32">
					<dim>116</dim>
					<dim>116</dim>
					<dim>1</dim>
					<dim>1</dim>
				</port>
			</output>
		</layer>
		<layer id="264" name="Conv_116/WithoutBiases" type="Convolution" version="opset1">
			<data strides="1,1" dilations="1,1" pads_begin="0,0" pads_end="0,0" output_padding="0,0"/>
			<input>
				<port id="0">
					<dim>1</dim>
					<dim>116</dim>
					<dim>20</dim>
					<dim>20</dim>
				</port>
				<port id="1">
					<dim>116</dim>
					<dim>116</dim>
					<dim>1</dim>
					<dim>1</dim>
				</port>
			</input>
			<output>
				<port id="2" precision="FP32">
					<dim>1</dim>
					<dim>116</dim>
					<dim>20</dim>
					<dim>20</dim>
				</port>
			</output>
		</layer>
		<layer id="265" name="Conv_116/Dims4898/copy_const" type="Const" version="opset1">
			<data offset="844332" size="464" shape="1,116,1,1" element_type="f32"/>
			<output>
				<port id="1" precision="FP32">
					<dim>1</dim>
					<dim>116</dim>
					<dim>1</dim>
					<dim>1</dim>
				</port>
			</output>
		</layer>
		<layer id="266" name="Conv_116" type="Add" version="opset1">
			<input>
				<port id="0">
					<dim>1</dim>
					<dim>116</dim>
					<dim>20</dim>
					<dim>20</dim>
				</port>
				<port id="1">
					<dim>1</dim>
					<dim>116</dim>
					<dim>1</dim>
					<dim>1</dim>
				</port>
			</input>
			<output>
				<port id="2" precision="FP32">
					<dim>1</dim>
					<dim>116</dim>
					<dim>20</dim>
					<dim>20</dim>
				</port>
			</output>
		</layer>
		<layer id="267" name="LeakyRelu_11713392/Cast_118991_const" type="Const" version="opset1">
			<data offset="2688" size="4" shape="1" element_type="f32"/>
			<output>
				<port id="1" precision="FP32">
					<dim>1</dim>
				</port>
			</output>
		</layer>
		<layer id="268" name="LeakyRelu_11713392" type="PReLU" version="opset1">
			<input>
				<port id="0">
					<dim>1</dim>
					<dim>116</dim>
					<dim>20</dim>
					<dim>20</dim>
				</port>
				<port id="1">
					<dim>1</dim>
				</port>
			</input>
			<output>
				<port id="2" precision="FP32">
					<dim>1</dim>
					<dim>116</dim>
					<dim>20</dim>
					<dim>20</dim>
				</port>
			</output>
		</layer>
		<layer id="269" name="1819418197_const" type="Const" version="opset1">
			<data offset="844796" size="4176" shape="116,1,1,3,3" element_type="f32"/>
			<output>
				<port id="1" precision="FP32">
					<dim>116</dim>
					<dim>1</dim>
					<dim>1</dim>
					<dim>3</dim>
					<dim>3</dim>
				</port>
			</output>
		</layer>
		<layer id="270" name="Conv_118/WithoutBiases" type="GroupConvolution" version="opset1">
			<data strides="1,1" dilations="1,1" pads_begin="1,1" pads_end="1,1" output_padding="0,0"/>
			<input>
				<port id="0">
					<dim>1</dim>
					<dim>116</dim>
					<dim>20</dim>
					<dim>20</dim>
				</port>
				<port id="1">
					<dim>116</dim>
					<dim>1</dim>
					<dim>1</dim>
					<dim>3</dim>
					<dim>3</dim>
				</port>
			</input>
			<output>
				<port id="2" precision="FP32">
					<dim>1</dim>
					<dim>116</dim>
					<dim>20</dim>
					<dim>20</dim>
				</port>
			</output>
		</layer>
		<layer id="271" name="Conv_118/Dims5006/copy_const" type="Const" version="opset1">
			<data offset="848972" size="464" shape="1,116,1,1" element_type="f32"/>
			<output>
				<port id="1" precision="FP32">
					<dim>1</dim>
					<dim>116</dim>
					<dim>1</dim>
					<dim>1</dim>
				</port>
			</output>
		</layer>
		<layer id="272" name="Conv_118" type="Add" version="opset1">
			<input>
				<port id="0">
					<dim>1</dim>
					<dim>116</dim>
					<dim>20</dim>
					<dim>20</dim>
				</port>
				<port id="1">
					<dim>1</dim>
					<dim>116</dim>
					<dim>1</dim>
					<dim>1</dim>
				</port>
			</input>
			<output>
				<port id="2" precision="FP32">
					<dim>1</dim>
					<dim>116</dim>
					<dim>20</dim>
					<dim>20</dim>
				</port>
			</output>
		</layer>
		<layer id="273" name="onnx_initializer_node_947/Output_0/Data__const" type="Const" version="opset1">
			<data offset="849436" size="53824" shape="116,116,1,1" element_type="f32"/>
			<output>
				<port id="1" precision="FP32">
					<dim>116</dim>
					<dim>116</dim>
					<dim>1</dim>
					<dim>1</dim>
				</port>
			</output>
		</layer>
		<layer id="274" name="Conv_119/WithoutBiases" type="Convolution" version="opset1">
			<data strides="1,1" dilations="1,1" pads_begin="0,0" pads_end="0,0" output_padding="0,0"/>
			<input>
				<port id="0">
					<dim>1</dim>
					<dim>116</dim>
					<dim>20</dim>
					<dim>20</dim>
				</port>
				<port id="1">
					<dim>116</dim>
					<dim>116</dim>
					<dim>1</dim>
					<dim>1</dim>
				</port>
			</input>
			<output>
				<port id="2" precision="FP32">
					<dim>1</dim>
					<dim>116</dim>
					<dim>20</dim>
					<dim>20</dim>
				</port>
			</output>
		</layer>
		<layer id="275" name="Conv_119/Dims5138/copy_const" type="Const" version="opset1">
			<data offset="903260" size="464" shape="1,116,1,1" element_type="f32"/>
			<output>
				<port id="1" precision="FP32">
					<dim>1</dim>
					<dim>116</dim>
					<dim>1</dim>
					<dim>1</dim>
				</port>
			</output>
		</layer>
		<layer id="276" name="Conv_119" type="Add" version="opset1">
			<input>
				<port id="0">
					<dim>1</dim>
					<dim>116</dim>
					<dim>20</dim>
					<dim>20</dim>
				</port>
				<port id="1">
					<dim>1</dim>
					<dim>116</dim>
					<dim>1</dim>
					<dim>1</dim>
				</port>
			</input>
			<output>
				<port id="2" precision="FP32">
					<dim>1</dim>
					<dim>116</dim>
					<dim>20</dim>
					<dim>20</dim>
				</port>
			</output>
		</layer>
		<layer id="277" name="LeakyRelu_12013284/Cast_118815_const" type="Const" version="opset1">
			<data offset="2688" size="4" shape="1" element_type="f32"/>
			<output>
				<port id="1" precision="FP32">
					<dim>1</dim>
				</port>
			</output>
		</layer>
		<layer id="278" name="LeakyRelu_12013284" type="PReLU" version="opset1">
			<input>
				<port id="0">
					<dim>1</dim>
					<dim>116</dim>
					<dim>20</dim>
					<dim>20</dim>
				</port>
				<port id="1">
					<dim>1</dim>
				</port>
			</input>
			<output>
				<port id="2" precision="FP32">
					<dim>1</dim>
					<dim>116</dim>
					<dim>20</dim>
					<dim>20</dim>
				</port>
			</output>
		</layer>
		<layer id="279" name="Concat_121" type="Concat" version="opset1">
			<data axis="1"/>
			<input>
				<port id="0">
					<dim>1</dim>
					<dim>116</dim>
					<dim>20</dim>
					<dim>20</dim>
				</port>
				<port id="1">
					<dim>1</dim>
					<dim>116</dim>
					<dim>20</dim>
					<dim>20</dim>
				</port>
			</input>
			<output>
				<port id="2" precision="FP32">
					<dim>1</dim>
					<dim>232</dim>
					<dim>20</dim>
					<dim>20</dim>
				</port>
			</output>
		</layer>
		<layer id="280" name="Reshape_123/Cast_119015_const" type="Const" version="opset1">
			<data offset="337556" size="40" shape="5" element_type="i64"/>
			<output>
				<port id="1" precision="I64">
					<dim>5</dim>
				</port>
			</output>
		</layer>
		<layer id="281" name="Reshape_123" type="Reshape" version="opset1">
			<data special_zero="True"/>
			<input>
				<port id="0">
					<dim>1</dim>
					<dim>232</dim>
					<dim>20</dim>
					<dim>20</dim>
				</port>
				<port id="1">
					<dim>5</dim>
				</port>
			</input>
			<output>
				<port id="2" precision="FP32">
					<dim>1</dim>
					<dim>2</dim>
					<dim>116</dim>
					<dim>20</dim>
					<dim>20</dim>
				</port>
			</output>
		</layer>
		<layer id="282" name="Transpose_124/Cast_118935_const" type="Const" version="opset1">
			<data offset="31300" size="40" shape="5" element_type="i64"/>
			<output>
				<port id="1" precision="I64">
					<dim>5</dim>
				</port>
			</output>
		</layer>
		<layer id="283" name="Transpose_124" type="Transpose" version="opset1">
			<input>
				<port id="0">
					<dim>1</dim>
					<dim>2</dim>
					<dim>116</dim>
					<dim>20</dim>
					<dim>20</dim>
				</port>
				<port id="1">
					<dim>5</dim>
				</port>
			</input>
			<output>
				<port id="2" precision="FP32">
					<dim>1</dim>
					<dim>116</dim>
					<dim>2</dim>
					<dim>20</dim>
					<dim>20</dim>
				</port>
			</output>
		</layer>
		<layer id="284" name="Reshape_126/Cast_119013_const" type="Const" version="opset1">
			<data offset="337596" size="32" shape="4" element_type="i64"/>
			<output>
				<port id="1" precision="I64">
					<dim>4</dim>
				</port>
			</output>
		</layer>
		<layer id="285" name="Reshape_126" type="Reshape" version="opset1">
			<data special_zero="True"/>
			<input>
				<port id="0">
					<dim>1</dim>
					<dim>116</dim>
					<dim>2</dim>
					<dim>20</dim>
					<dim>20</dim>
				</port>
				<port id="1">
					<dim>4</dim>
				</port>
			</input>
			<output>
				<port id="2" precision="FP32">
					<dim>1</dim>
					<dim>232</dim>
					<dim>20</dim>
					<dim>20</dim>
				</port>
			</output>
		</layer>
		<layer id="286" name="Split_127/VariadicSplit_input_port_1/value/Output_0/Data__const" type="Const" version="opset1">
			<data offset="31372" size="8" shape="" element_type="i64"/>
			<output>
				<port id="1" precision="I64"/>
			</output>
		</layer>
		<layer id="287" name="Split_127/VariadicSplit_input_port_2/value/Output_0/Data__const" type="Const" version="opset1">
			<data offset="337628" size="16" shape="2" element_type="i64"/>
			<output>
				<port id="1" precision="I64">
					<dim>2</dim>
				</port>
			</output>
		</layer>
		<layer id="288" name="Split_127/VariadicSplit" type="VariadicSplit" version="opset1">
			<input>
				<port id="0">
					<dim>1</dim>
					<dim>232</dim>
					<dim>20</dim>
					<dim>20</dim>
				</port>
				<port id="1"/>
				<port id="2">
					<dim>2</dim>
				</port>
			</input>
			<output>
				<port id="3" precision="FP32">
					<dim>1</dim>
					<dim>116</dim>
					<dim>20</dim>
					<dim>20</dim>
				</port>
				<port id="4" precision="FP32">
					<dim>1</dim>
					<dim>116</dim>
					<dim>20</dim>
					<dim>20</dim>
				</port>
			</output>
		</layer>
		<layer id="289" name="onnx_initializer_node_950/Output_0/Data__const" type="Const" version="opset1">
			<data offset="903724" size="53824" shape="116,116,1,1" element_type="f32"/>
			<output>
				<port id="1" precision="FP32">
					<dim>116</dim>
					<dim>116</dim>
					<dim>1</dim>
					<dim>1</dim>
				</port>
			</output>
		</layer>
		<layer id="290" name="Conv_128/WithoutBiases" type="Convolution" version="opset1">
			<data strides="1,1" dilations="1,1" pads_begin="0,0" pads_end="0,0" output_padding="0,0"/>
			<input>
				<port id="0">
					<dim>1</dim>
					<dim>116</dim>
					<dim>20</dim>
					<dim>20</dim>
				</port>
				<port id="1">
					<dim>116</dim>
					<dim>116</dim>
					<dim>1</dim>
					<dim>1</dim>
				</port>
			</input>
			<output>
				<port id="2" precision="FP32">
					<dim>1</dim>
					<dim>116</dim>
					<dim>20</dim>
					<dim>20</dim>
				</port>
			</output>
		</layer>
		<layer id="291" name="Conv_128/Dims5144/copy_const" type="Const" version="opset1">
			<data offset="957548" size="464" shape="1,116,1,1" element_type="f32"/>
			<output>
				<port id="1" precision="FP32">
					<dim>1</dim>
					<dim>116</dim>
					<dim>1</dim>
					<dim>1</dim>
				</port>
			</output>
		</layer>
		<layer id="292" name="Conv_128" type="Add" version="opset1">
			<input>
				<port id="0">
					<dim>1</dim>
					<dim>116</dim>
					<dim>20</dim>
					<dim>20</dim>
				</port>
				<port id="1">
					<dim>1</dim>
					<dim>116</dim>
					<dim>1</dim>
					<dim>1</dim>
				</port>
			</input>
			<output>
				<port id="2" precision="FP32">
					<dim>1</dim>
					<dim>116</dim>
					<dim>20</dim>
					<dim>20</dim>
				</port>
			</output>
		</layer>
		<layer id="293" name="LeakyRelu_12913400/Cast_118873_const" type="Const" version="opset1">
			<data offset="2688" size="4" shape="1" element_type="f32"/>
			<output>
				<port id="1" precision="FP32">
					<dim>1</dim>
				</port>
			</output>
		</layer>
		<layer id="294" name="LeakyRelu_12913400" type="PReLU" version="opset1">
			<input>
				<port id="0">
					<dim>1</dim>
					<dim>116</dim>
					<dim>20</dim>
					<dim>20</dim>
				</port>
				<port id="1">
					<dim>1</dim>
				</port>
			</input>
			<output>
				<port id="2" precision="FP32">
					<dim>1</dim>
					<dim>116</dim>
					<dim>20</dim>
					<dim>20</dim>
				</port>
			</output>
		</layer>
		<layer id="295" name="1821018213_const" type="Const" version="opset1">
			<data offset="958012" size="4176" shape="116,1,1,3,3" element_type="f32"/>
			<output>
				<port id="1" precision="FP32">
					<dim>116</dim>
					<dim>1</dim>
					<dim>1</dim>
					<dim>3</dim>
					<dim>3</dim>
				</port>
			</output>
		</layer>
		<layer id="296" name="Conv_130/WithoutBiases" type="GroupConvolution" version="opset1">
			<data strides="1,1" dilations="1,1" pads_begin="1,1" pads_end="1,1" output_padding="0,0"/>
			<input>
				<port id="0">
					<dim>1</dim>
					<dim>116</dim>
					<dim>20</dim>
					<dim>20</dim>
				</port>
				<port id="1">
					<dim>116</dim>
					<dim>1</dim>
					<dim>1</dim>
					<dim>3</dim>
					<dim>3</dim>
				</port>
			</input>
			<output>
				<port id="2" precision="FP32">
					<dim>1</dim>
					<dim>116</dim>
					<dim>20</dim>
					<dim>20</dim>
				</port>
			</output>
		</layer>
		<layer id="297" name="Conv_130/Dims5084/copy_const" type="Const" version="opset1">
			<data offset="962188" size="464" shape="1,116,1,1" element_type="f32"/>
			<output>
				<port id="1" precision="FP32">
					<dim>1</dim>
					<dim>116</dim>
					<dim>1</dim>
					<dim>1</dim>
				</port>
			</output>
		</layer>
		<layer id="298" name="Conv_130" type="Add" version="opset1">
			<input>
				<port id="0">
					<dim>1</dim>
					<dim>116</dim>
					<dim>20</dim>
					<dim>20</dim>
				</port>
				<port id="1">
					<dim>1</dim>
					<dim>116</dim>
					<dim>1</dim>
					<dim>1</dim>
				</port>
			</input>
			<output>
				<port id="2" precision="FP32">
					<dim>1</dim>
					<dim>116</dim>
					<dim>20</dim>
					<dim>20</dim>
				</port>
			</output>
		</layer>
		<layer id="299" name="onnx_initializer_node_956/Output_0/Data__const" type="Const" version="opset1">
			<data offset="962652" size="53824" shape="116,116,1,1" element_type="f32"/>
			<output>
				<port id="1" precision="FP32">
					<dim>116</dim>
					<dim>116</dim>
					<dim>1</dim>
					<dim>1</dim>
				</port>
			</output>
		</layer>
		<layer id="300" name="Conv_131/WithoutBiases" type="Convolution" version="opset1">
			<data strides="1,1" dilations="1,1" pads_begin="0,0" pads_end="0,0" output_padding="0,0"/>
			<input>
				<port id="0">
					<dim>1</dim>
					<dim>116</dim>
					<dim>20</dim>
					<dim>20</dim>
				</port>
				<port id="1">
					<dim>116</dim>
					<dim>116</dim>
					<dim>1</dim>
					<dim>1</dim>
				</port>
			</input>
			<output>
				<port id="2" precision="FP32">
					<dim>1</dim>
					<dim>116</dim>
					<dim>20</dim>
					<dim>20</dim>
				</port>
			</output>
		</layer>
		<layer id="301" name="Conv_131/Dims4934/copy_const" type="Const" version="opset1">
			<data offset="1016476" size="464" shape="1,116,1,1" element_type="f32"/>
			<output>
				<port id="1" precision="FP32">
					<dim>1</dim>
					<dim>116</dim>
					<dim>1</dim>
					<dim>1</dim>
				</port>
			</output>
		</layer>
		<layer id="302" name="Conv_131" type="Add" version="opset1">
			<input>
				<port id="0">
					<dim>1</dim>
					<dim>116</dim>
					<dim>20</dim>
					<dim>20</dim>
				</port>
				<port id="1">
					<dim>1</dim>
					<dim>116</dim>
					<dim>1</dim>
					<dim>1</dim>
				</port>
			</input>
			<output>
				<port id="2" precision="FP32">
					<dim>1</dim>
					<dim>116</dim>
					<dim>20</dim>
					<dim>20</dim>
				</port>
			</output>
		</layer>
		<layer id="303" name="LeakyRelu_13213388/Cast_118869_const" type="Const" version="opset1">
			<data offset="2688" size="4" shape="1" element_type="f32"/>
			<output>
				<port id="1" precision="FP32">
					<dim>1</dim>
				</port>
			</output>
		</layer>
		<layer id="304" name="LeakyRelu_13213388" type="PReLU" version="opset1">
			<input>
				<port id="0">
					<dim>1</dim>
					<dim>116</dim>
					<dim>20</dim>
					<dim>20</dim>
				</port>
				<port id="1">
					<dim>1</dim>
				</port>
			</input>
			<output>
				<port id="2" precision="FP32">
					<dim>1</dim>
					<dim>116</dim>
					<dim>20</dim>
					<dim>20</dim>
				</port>
			</output>
		</layer>
		<layer id="305" name="Concat_133" type="Concat" version="opset1">
			<data axis="1"/>
			<input>
				<port id="0">
					<dim>1</dim>
					<dim>116</dim>
					<dim>20</dim>
					<dim>20</dim>
				</port>
				<port id="1">
					<dim>1</dim>
					<dim>116</dim>
					<dim>20</dim>
					<dim>20</dim>
				</port>
			</input>
			<output>
				<port id="2" precision="FP32">
					<dim>1</dim>
					<dim>232</dim>
					<dim>20</dim>
					<dim>20</dim>
				</port>
			</output>
		</layer>
		<layer id="306" name="Reshape_135/Cast_118973_const" type="Const" version="opset1">
			<data offset="337556" size="40" shape="5" element_type="i64"/>
			<output>
				<port id="1" precision="I64">
					<dim>5</dim>
				</port>
			</output>
		</layer>
		<layer id="307" name="Reshape_135" type="Reshape" version="opset1">
			<data special_zero="True"/>
			<input>
				<port id="0">
					<dim>1</dim>
					<dim>232</dim>
					<dim>20</dim>
					<dim>20</dim>
				</port>
				<port id="1">
					<dim>5</dim>
				</port>
			</input>
			<output>
				<port id="2" precision="FP32">
					<dim>1</dim>
					<dim>2</dim>
					<dim>116</dim>
					<dim>20</dim>
					<dim>20</dim>
				</port>
			</output>
		</layer>
		<layer id="308" name="Transpose_136/Cast_119007_const" type="Const" version="opset1">
			<data offset="31300" size="40" shape="5" element_type="i64"/>
			<output>
				<port id="1" precision="I64">
					<dim>5</dim>
				</port>
			</output>
		</layer>
		<layer id="309" name="Transpose_136" type="Transpose" version="opset1">
			<input>
				<port id="0">
					<dim>1</dim>
					<dim>2</dim>
					<dim>116</dim>
					<dim>20</dim>
					<dim>20</dim>
				</port>
				<port id="1">
					<dim>5</dim>
				</port>
			</input>
			<output>
				<port id="2" precision="FP32">
					<dim>1</dim>
					<dim>116</dim>
					<dim>2</dim>
					<dim>20</dim>
					<dim>20</dim>
				</port>
			</output>
		</layer>
		<layer id="310" name="Reshape_138/Cast_118987_const" type="Const" version="opset1">
			<data offset="337596" size="32" shape="4" element_type="i64"/>
			<output>
				<port id="1" precision="I64">
					<dim>4</dim>
				</port>
			</output>
		</layer>
		<layer id="311" name="Reshape_138" type="Reshape" version="opset1">
			<data special_zero="True"/>
			<input>
				<port id="0">
					<dim>1</dim>
					<dim>116</dim>
					<dim>2</dim>
					<dim>20</dim>
					<dim>20</dim>
				</port>
				<port id="1">
					<dim>4</dim>
				</port>
			</input>
			<output>
				<port id="2" precision="FP32">
					<dim>1</dim>
					<dim>232</dim>
					<dim>20</dim>
					<dim>20</dim>
				</port>
			</output>
		</layer>
		<layer id="312" name="Split_139/VariadicSplit_input_port_1/value/Output_0/Data__const" type="Const" version="opset1">
			<data offset="31372" size="8" shape="" element_type="i64"/>
			<output>
				<port id="1" precision="I64"/>
			</output>
		</layer>
		<layer id="313" name="Split_139/VariadicSplit_input_port_2/value/Output_0/Data__const" type="Const" version="opset1">
			<data offset="337628" size="16" shape="2" element_type="i64"/>
			<output>
				<port id="1" precision="I64">
					<dim>2</dim>
				</port>
			</output>
		</layer>
		<layer id="314" name="Split_139/VariadicSplit" type="VariadicSplit" version="opset1">
			<input>
				<port id="0">
					<dim>1</dim>
					<dim>232</dim>
					<dim>20</dim>
					<dim>20</dim>
				</port>
				<port id="1"/>
				<port id="2">
					<dim>2</dim>
				</port>
			</input>
			<output>
				<port id="3" precision="FP32">
					<dim>1</dim>
					<dim>116</dim>
					<dim>20</dim>
					<dim>20</dim>
				</port>
				<port id="4" precision="FP32">
					<dim>1</dim>
					<dim>116</dim>
					<dim>20</dim>
					<dim>20</dim>
				</port>
			</output>
		</layer>
		<layer id="315" name="onnx_initializer_node_959/Output_0/Data__const" type="Const" version="opset1">
			<data offset="1016940" size="53824" shape="116,116,1,1" element_type="f32"/>
			<output>
				<port id="1" precision="FP32">
					<dim>116</dim>
					<dim>116</dim>
					<dim>1</dim>
					<dim>1</dim>
				</port>
			</output>
		</layer>
		<layer id="316" name="Conv_140/WithoutBiases" type="Convolution" version="opset1">
			<data strides="1,1" dilations="1,1" pads_begin="0,0" pads_end="0,0" output_padding="0,0"/>
			<input>
				<port id="0">
					<dim>1</dim>
					<dim>116</dim>
					<dim>20</dim>
					<dim>20</dim>
				</port>
				<port id="1">
					<dim>116</dim>
					<dim>116</dim>
					<dim>1</dim>
					<dim>1</dim>
				</port>
			</input>
			<output>
				<port id="2" precision="FP32">
					<dim>1</dim>
					<dim>116</dim>
					<dim>20</dim>
					<dim>20</dim>
				</port>
			</output>
		</layer>
		<layer id="317" name="Conv_140/Dims4796/copy_const" type="Const" version="opset1">
			<data offset="1070764" size="464" shape="1,116,1,1" element_type="f32"/>
			<output>
				<port id="1" precision="FP32">
					<dim>1</dim>
					<dim>116</dim>
					<dim>1</dim>
					<dim>1</dim>
				</port>
			</output>
		</layer>
		<layer id="318" name="Conv_140" type="Add" version="opset1">
			<input>
				<port id="0">
					<dim>1</dim>
					<dim>116</dim>
					<dim>20</dim>
					<dim>20</dim>
				</port>
				<port id="1">
					<dim>1</dim>
					<dim>116</dim>
					<dim>1</dim>
					<dim>1</dim>
				</port>
			</input>
			<output>
				<port id="2" precision="FP32">
					<dim>1</dim>
					<dim>116</dim>
					<dim>20</dim>
					<dim>20</dim>
				</port>
			</output>
		</layer>
		<layer id="319" name="LeakyRelu_14113436/Cast_118851_const" type="Const" version="opset1">
			<data offset="2688" size="4" shape="1" element_type="f32"/>
			<output>
				<port id="1" precision="FP32">
					<dim>1</dim>
				</port>
			</output>
		</layer>
		<layer id="320" name="LeakyRelu_14113436" type="PReLU" version="opset1">
			<input>
				<port id="0">
					<dim>1</dim>
					<dim>116</dim>
					<dim>20</dim>
					<dim>20</dim>
				</port>
				<port id="1">
					<dim>1</dim>
				</port>
			</input>
			<output>
				<port id="2" precision="FP32">
					<dim>1</dim>
					<dim>116</dim>
					<dim>20</dim>
					<dim>20</dim>
				</port>
			</output>
		</layer>
		<layer id="321" name="1820218205_const" type="Const" version="opset1">
			<data offset="1071228" size="4176" shape="116,1,1,3,3" element_type="f32"/>
			<output>
				<port id="1" precision="FP32">
					<dim>116</dim>
					<dim>1</dim>
					<dim>1</dim>
					<dim>3</dim>
					<dim>3</dim>
				</port>
			</output>
		</layer>
		<layer id="322" name="Conv_142/WithoutBiases" type="GroupConvolution" version="opset1">
			<data strides="1,1" dilations="1,1" pads_begin="1,1" pads_end="1,1" output_padding="0,0"/>
			<input>
				<port id="0">
					<dim>1</dim>
					<dim>116</dim>
					<dim>20</dim>
					<dim>20</dim>
				</port>
				<port id="1">
					<dim>116</dim>
					<dim>1</dim>
					<dim>1</dim>
					<dim>3</dim>
					<dim>3</dim>
				</port>
			</input>
			<output>
				<port id="2" precision="FP32">
					<dim>1</dim>
					<dim>116</dim>
					<dim>20</dim>
					<dim>20</dim>
				</port>
			</output>
		</layer>
		<layer id="323" name="Conv_142/Dims5060/copy_const" type="Const" version="opset1">
			<data offset="1075404" size="464" shape="1,116,1,1" element_type="f32"/>
			<output>
				<port id="1" precision="FP32">
					<dim>1</dim>
					<dim>116</dim>
					<dim>1</dim>
					<dim>1</dim>
				</port>
			</output>
		</layer>
		<layer id="324" name="Conv_142" type="Add" version="opset1">
			<input>
				<port id="0">
					<dim>1</dim>
					<dim>116</dim>
					<dim>20</dim>
					<dim>20</dim>
				</port>
				<port id="1">
					<dim>1</dim>
					<dim>116</dim>
					<dim>1</dim>
					<dim>1</dim>
				</port>
			</input>
			<output>
				<port id="2" precision="FP32">
					<dim>1</dim>
					<dim>116</dim>
					<dim>20</dim>
					<dim>20</dim>
				</port>
			</output>
		</layer>
		<layer id="325" name="onnx_initializer_node_965/Output_0/Data__const" type="Const" version="opset1">
			<data offset="1075868" size="53824" shape="116,116,1,1" element_type="f32"/>
			<output>
				<port id="1" precision="FP32">
					<dim>116</dim>
					<dim>116</dim>
					<dim>1</dim>
					<dim>1</dim>
				</port>
			</output>
		</layer>
		<layer id="326" name="Conv_143/WithoutBiases" type="Convolution" version="opset1">
			<data strides="1,1" dilations="1,1" pads_begin="0,0" pads_end="0,0" output_padding="0,0"/>
			<input>
				<port id="0">
					<dim>1</dim>
					<dim>116</dim>
					<dim>20</dim>
					<dim>20</dim>
				</port>
				<port id="1">
					<dim>116</dim>
					<dim>116</dim>
					<dim>1</dim>
					<dim>1</dim>
				</port>
			</input>
			<output>
				<port id="2" precision="FP32">
					<dim>1</dim>
					<dim>116</dim>
					<dim>20</dim>
					<dim>20</dim>
				</port>
			</output>
		</layer>
		<layer id="327" name="Conv_143/Dims4904/copy_const" type="Const" version="opset1">
			<data offset="1129692" size="464" shape="1,116,1,1" element_type="f32"/>
			<output>
				<port id="1" precision="FP32">
					<dim>1</dim>
					<dim>116</dim>
					<dim>1</dim>
					<dim>1</dim>
				</port>
			</output>
		</layer>
		<layer id="328" name="Conv_143" type="Add" version="opset1">
			<input>
				<port id="0">
					<dim>1</dim>
					<dim>116</dim>
					<dim>20</dim>
					<dim>20</dim>
				</port>
				<port id="1">
					<dim>1</dim>
					<dim>116</dim>
					<dim>1</dim>
					<dim>1</dim>
				</port>
			</input>
			<output>
				<port id="2" precision="FP32">
					<dim>1</dim>
					<dim>116</dim>
					<dim>20</dim>
					<dim>20</dim>
				</port>
			</output>
		</layer>
		<layer id="329" name="LeakyRelu_14413280/Cast_118891_const" type="Const" version="opset1">
			<data offset="2688" size="4" shape="1" element_type="f32"/>
			<output>
				<port id="1" precision="FP32">
					<dim>1</dim>
				</port>
			</output>
		</layer>
		<layer id="330" name="LeakyRelu_14413280" type="PReLU" version="opset1">
			<input>
				<port id="0">
					<dim>1</dim>
					<dim>116</dim>
					<dim>20</dim>
					<dim>20</dim>
				</port>
				<port id="1">
					<dim>1</dim>
				</port>
			</input>
			<output>
				<port id="2" precision="FP32">
					<dim>1</dim>
					<dim>116</dim>
					<dim>20</dim>
					<dim>20</dim>
				</port>
			</output>
		</layer>
		<layer id="331" name="Concat_145" type="Concat" version="opset1">
			<data axis="1"/>
			<input>
				<port id="0">
					<dim>1</dim>
					<dim>116</dim>
					<dim>20</dim>
					<dim>20</dim>
				</port>
				<port id="1">
					<dim>1</dim>
					<dim>116</dim>
					<dim>20</dim>
					<dim>20</dim>
				</port>
			</input>
			<output>
				<port id="2" precision="FP32">
					<dim>1</dim>
					<dim>232</dim>
					<dim>20</dim>
					<dim>20</dim>
				</port>
			</output>
		</layer>
		<layer id="332" name="Reshape_147/Cast_118885_const" type="Const" version="opset1">
			<data offset="337556" size="40" shape="5" element_type="i64"/>
			<output>
				<port id="1" precision="I64">
					<dim>5</dim>
				</port>
			</output>
		</layer>
		<layer id="333" name="Reshape_147" type="Reshape" version="opset1">
			<data special_zero="True"/>
			<input>
				<port id="0">
					<dim>1</dim>
					<dim>232</dim>
					<dim>20</dim>
					<dim>20</dim>
				</port>
				<port id="1">
					<dim>5</dim>
				</port>
			</input>
			<output>
				<port id="2" precision="FP32">
					<dim>1</dim>
					<dim>2</dim>
					<dim>116</dim>
					<dim>20</dim>
					<dim>20</dim>
				</port>
			</output>
		</layer>
		<layer id="334" name="Transpose_148/Cast_118909_const" type="Const" version="opset1">
			<data offset="31300" size="40" shape="5" element_type="i64"/>
			<output>
				<port id="1" precision="I64">
					<dim>5</dim>
				</port>
			</output>
		</layer>
		<layer id="335" name="Transpose_148" type="Transpose" version="opset1">
			<input>
				<port id="0">
					<dim>1</dim>
					<dim>2</dim>
					<dim>116</dim>
					<dim>20</dim>
					<dim>20</dim>
				</port>
				<port id="1">
					<dim>5</dim>
				</port>
			</input>
			<output>
				<port id="2" precision="FP32">
					<dim>1</dim>
					<dim>116</dim>
					<dim>2</dim>
					<dim>20</dim>
					<dim>20</dim>
				</port>
			</output>
		</layer>
		<layer id="336" name="Reshape_150/Cast_118905_const" type="Const" version="opset1">
			<data offset="337596" size="32" shape="4" element_type="i64"/>
			<output>
				<port id="1" precision="I64">
					<dim>4</dim>
				</port>
			</output>
		</layer>
		<layer id="337" name="Reshape_150" type="Reshape" version="opset1">
			<data special_zero="True"/>
			<input>
				<port id="0">
					<dim>1</dim>
					<dim>116</dim>
					<dim>2</dim>
					<dim>20</dim>
					<dim>20</dim>
				</port>
				<port id="1">
					<dim>4</dim>
				</port>
			</input>
			<output>
				<port id="2" precision="FP32">
					<dim>1</dim>
					<dim>232</dim>
					<dim>20</dim>
					<dim>20</dim>
				</port>
			</output>
		</layer>
		<layer id="338" name="onnx_initializer_node_fpn.lateral_convs.1.conv.weight/Output_0/Data__const" type="Const" version="opset1">
			<data offset="1130156" size="89088" shape="96,232,1,1" element_type="f32"/>
			<output>
				<port id="1" precision="FP32">
					<dim>96</dim>
					<dim>232</dim>
					<dim>1</dim>
					<dim>1</dim>
				</port>
			</output>
		</layer>
		<layer id="339" name="Conv_202/WithoutBiases" type="Convolution" version="opset1">
			<data strides="1,1" dilations="1,1" pads_begin="0,0" pads_end="0,0" output_padding="0,0"/>
			<input>
				<port id="0">
					<dim>1</dim>
					<dim>232</dim>
					<dim>20</dim>
					<dim>20</dim>
				</port>
				<port id="1">
					<dim>96</dim>
					<dim>232</dim>
					<dim>1</dim>
					<dim>1</dim>
				</port>
			</input>
			<output>
				<port id="2" precision="FP32">
					<dim>1</dim>
					<dim>96</dim>
					<dim>20</dim>
					<dim>20</dim>
				</port>
			</output>
		</layer>
		<layer id="340" name="Conv_202/Dims4964/copy_const" type="Const" version="opset1">
			<data offset="1219244" size="384" shape="1,96,1,1" element_type="f32"/>
			<output>
				<port id="1" precision="FP32">
					<dim>1</dim>
					<dim>96</dim>
					<dim>1</dim>
					<dim>1</dim>
				</port>
			</output>
		</layer>
		<layer id="341" name="Conv_202" type="Add" version="opset1">
			<input>
				<port id="0">
					<dim>1</dim>
					<dim>96</dim>
					<dim>20</dim>
					<dim>20</dim>
				</port>
				<port id="1">
					<dim>1</dim>
					<dim>96</dim>
					<dim>1</dim>
					<dim>1</dim>
				</port>
			</input>
			<output>
				<port id="2" precision="FP32">
					<dim>1</dim>
					<dim>96</dim>
					<dim>20</dim>
					<dim>20</dim>
				</port>
			</output>
		</layer>
		<layer id="342" name="1820618209_const" type="Const" version="opset1">
			<data offset="1219628" size="8352" shape="232,1,1,3,3" element_type="f32"/>
			<output>
				<port id="1" precision="FP32">
					<dim>232</dim>
					<dim>1</dim>
					<dim>1</dim>
					<dim>3</dim>
					<dim>3</dim>
				</port>
			</output>
		</layer>
		<layer id="343" name="Conv_151/WithoutBiases" type="GroupConvolution" version="opset1">
			<data strides="2,2" dilations="1,1" pads_begin="1,1" pads_end="1,1" output_padding="0,0"/>
			<input>
				<port id="0">
					<dim>1</dim>
					<dim>232</dim>
					<dim>20</dim>
					<dim>20</dim>
				</port>
				<port id="1">
					<dim>232</dim>
					<dim>1</dim>
					<dim>1</dim>
					<dim>3</dim>
					<dim>3</dim>
				</port>
			</input>
			<output>
				<port id="2" precision="FP32">
					<dim>1</dim>
					<dim>232</dim>
					<dim>10</dim>
					<dim>10</dim>
				</port>
			</output>
		</layer>
		<layer id="344" name="Conv_151/Dims5072/copy_const" type="Const" version="opset1">
			<data offset="1227980" size="928" shape="1,232,1,1" element_type="f32"/>
			<output>
				<port id="1" precision="FP32">
					<dim>1</dim>
					<dim>232</dim>
					<dim>1</dim>
					<dim>1</dim>
				</port>
			</output>
		</layer>
		<layer id="345" name="Conv_151" type="Add" version="opset1">
			<input>
				<port id="0">
					<dim>1</dim>
					<dim>232</dim>
					<dim>10</dim>
					<dim>10</dim>
				</port>
				<port id="1">
					<dim>1</dim>
					<dim>232</dim>
					<dim>1</dim>
					<dim>1</dim>
				</port>
			</input>
			<output>
				<port id="2" precision="FP32">
					<dim>1</dim>
					<dim>232</dim>
					<dim>10</dim>
					<dim>10</dim>
				</port>
			</output>
		</layer>
		<layer id="346" name="onnx_initializer_node_971/Output_0/Data__const" type="Const" version="opset1">
			<data offset="1228908" size="215296" shape="232,232,1,1" element_type="f32"/>
			<output>
				<port id="1" precision="FP32">
					<dim>232</dim>
					<dim>232</dim>
					<dim>1</dim>
					<dim>1</dim>
				</port>
			</output>
		</layer>
		<layer id="347" name="Conv_152/WithoutBiases" type="Convolution" version="opset1">
			<data strides="1,1" dilations="1,1" pads_begin="0,0" pads_end="0,0" output_padding="0,0"/>
			<input>
				<port id="0">
					<dim>1</dim>
					<dim>232</dim>
					<dim>10</dim>
					<dim>10</dim>
				</port>
				<port id="1">
					<dim>232</dim>
					<dim>232</dim>
					<dim>1</dim>
					<dim>1</dim>
				</port>
			</input>
			<output>
				<port id="2" precision="FP32">
					<dim>1</dim>
					<dim>232</dim>
					<dim>10</dim>
					<dim>10</dim>
				</port>
			</output>
		</layer>
		<layer id="348" name="Conv_152/Dims4982/copy_const" type="Const" version="opset1">
			<data offset="1444204" size="928" shape="1,232,1,1" element_type="f32"/>
			<output>
				<port id="1" precision="FP32">
					<dim>1</dim>
					<dim>232</dim>
					<dim>1</dim>
					<dim>1</dim>
				</port>
			</output>
		</layer>
		<layer id="349" name="Conv_152" type="Add" version="opset1">
			<input>
				<port id="0">
					<dim>1</dim>
					<dim>232</dim>
					<dim>10</dim>
					<dim>10</dim>
				</port>
				<port id="1">
					<dim>1</dim>
					<dim>232</dim>
					<dim>1</dim>
					<dim>1</dim>
				</port>
			</input>
			<output>
				<port id="2" precision="FP32">
					<dim>1</dim>
					<dim>232</dim>
					<dim>10</dim>
					<dim>10</dim>
				</port>
			</output>
		</layer>
		<layer id="350" name="LeakyRelu_15313420/Cast_118951_const" type="Const" version="opset1">
			<data offset="2688" size="4" shape="1" element_type="f32"/>
			<output>
				<port id="1" precision="FP32">
					<dim>1</dim>
				</port>
			</output>
		</layer>
		<layer id="351" name="LeakyRelu_15313420" type="PReLU" version="opset1">
			<input>
				<port id="0">
					<dim>1</dim>
					<dim>232</dim>
					<dim>10</dim>
					<dim>10</dim>
				</port>
				<port id="1">
					<dim>1</dim>
				</port>
			</input>
			<output>
				<port id="2" precision="FP32">
					<dim>1</dim>
					<dim>232</dim>
					<dim>10</dim>
					<dim>10</dim>
				</port>
			</output>
		</layer>
		<layer id="352" name="onnx_initializer_node_974/Output_0/Data__const" type="Const" version="opset1">
			<data offset="1445132" size="215296" shape="232,232,1,1" element_type="f32"/>
			<output>
				<port id="1" precision="FP32">
					<dim>232</dim>
					<dim>232</dim>
					<dim>1</dim>
					<dim>1</dim>
				</port>
			</output>
		</layer>
		<layer id="353" name="Conv_154/WithoutBiases" type="Convolution" version="opset1">
			<data strides="1,1" dilations="1,1" pads_begin="0,0" pads_end="0,0" output_padding="0,0"/>
			<input>
				<port id="0">
					<dim>1</dim>
					<dim>232</dim>
					<dim>20</dim>
					<dim>20</dim>
				</port>
				<port id="1">
					<dim>232</dim>
					<dim>232</dim>
					<dim>1</dim>
					<dim>1</dim>
				</port>
			</input>
			<output>
				<port id="2" precision="FP32">
					<dim>1</dim>
					<dim>232</dim>
					<dim>20</dim>
					<dim>20</dim>
				</port>
			</output>
		</layer>
		<layer id="354" name="Conv_154/Dims5108/copy_const" type="Const" version="opset1">
			<data offset="1660428" size="928" shape="1,232,1,1" element_type="f32"/>
			<output>
				<port id="1" precision="FP32">
					<dim>1</dim>
					<dim>232</dim>
					<dim>1</dim>
					<dim>1</dim>
				</port>
			</output>
		</layer>
		<layer id="355" name="Conv_154" type="Add" version="opset1">
			<input>
				<port id="0">
					<dim>1</dim>
					<dim>232</dim>
					<dim>20</dim>
					<dim>20</dim>
				</port>
				<port id="1">
					<dim>1</dim>
					<dim>232</dim>
					<dim>1</dim>
					<dim>1</dim>
				</port>
			</input>
			<output>
				<port id="2" precision="FP32">
					<dim>1</dim>
					<dim>232</dim>
					<dim>20</dim>
					<dim>20</dim>
				</port>
			</output>
		</layer>
		<layer id="356" name="LeakyRelu_15513324/Cast_118837_const" type="Const" version="opset1">
			<data offset="2688" size="4" shape="1" element_type="f32"/>
			<output>
				<port id="1" precision="FP32">
					<dim>1</dim>
				</port>
			</output>
		</layer>
		<layer id="357" name="LeakyRelu_15513324" type="PReLU" version="opset1">
			<input>
				<port id="0">
					<dim>1</dim>
					<dim>232</dim>
					<dim>20</dim>
					<dim>20</dim>
				</port>
				<port id="1">
					<dim>1</dim>
				</port>
			</input>
			<output>
				<port id="2" precision="FP32">
					<dim>1</dim>
					<dim>232</dim>
					<dim>20</dim>
					<dim>20</dim>
				</port>
			</output>
		</layer>
		<layer id="358" name="1822218225_const" type="Const" version="opset1">
			<data offset="1661356" size="8352" shape="232,1,1,3,3" element_type="f32"/>
			<output>
				<port id="1" precision="FP32">
					<dim>232</dim>
					<dim>1</dim>
					<dim>1</dim>
					<dim>3</dim>
					<dim>3</dim>
				</port>
			</output>
		</layer>
		<layer id="359" name="Conv_156/WithoutBiases" type="GroupConvolution" version="opset1">
			<data strides="2,2" dilations="1,1" pads_begin="1,1" pads_end="1,1" output_padding="0,0"/>
			<input>
				<port id="0">
					<dim>1</dim>
					<dim>232</dim>
					<dim>20</dim>
					<dim>20</dim>
				</port>
				<port id="1">
					<dim>232</dim>
					<dim>1</dim>
					<dim>1</dim>
					<dim>3</dim>
					<dim>3</dim>
				</port>
			</input>
			<output>
				<port id="2" precision="FP32">
					<dim>1</dim>
					<dim>232</dim>
					<dim>10</dim>
					<dim>10</dim>
				</port>
			</output>
		</layer>
		<layer id="360" name="Conv_156/Dims5102/copy_const" type="Const" version="opset1">
			<data offset="1669708" size="928" shape="1,232,1,1" element_type="f32"/>
			<output>
				<port id="1" precision="FP32">
					<dim>1</dim>
					<dim>232</dim>
					<dim>1</dim>
					<dim>1</dim>
				</port>
			</output>
		</layer>
		<layer id="361" name="Conv_156" type="Add" version="opset1">
			<input>
				<port id="0">
					<dim>1</dim>
					<dim>232</dim>
					<dim>10</dim>
					<dim>10</dim>
				</port>
				<port id="1">
					<dim>1</dim>
					<dim>232</dim>
					<dim>1</dim>
					<dim>1</dim>
				</port>
			</input>
			<output>
				<port id="2" precision="FP32">
					<dim>1</dim>
					<dim>232</dim>
					<dim>10</dim>
					<dim>10</dim>
				</port>
			</output>
		</layer>
		<layer id="362" name="onnx_initializer_node_980/Output_0/Data__const" type="Const" version="opset1">
			<data offset="1670636" size="215296" shape="232,232,1,1" element_type="f32"/>
			<output>
				<port id="1" precision="FP32">
					<dim>232</dim>
					<dim>232</dim>
					<dim>1</dim>
					<dim>1</dim>
				</port>
			</output>
		</layer>
		<layer id="363" name="Conv_157/WithoutBiases" type="Convolution" version="opset1">
			<data strides="1,1" dilations="1,1" pads_begin="0,0" pads_end="0,0" output_padding="0,0"/>
			<input>
				<port id="0">
					<dim>1</dim>
					<dim>232</dim>
					<dim>10</dim>
					<dim>10</dim>
				</port>
				<port id="1">
					<dim>232</dim>
					<dim>232</dim>
					<dim>1</dim>
					<dim>1</dim>
				</port>
			</input>
			<output>
				<port id="2" precision="FP32">
					<dim>1</dim>
					<dim>232</dim>
					<dim>10</dim>
					<dim>10</dim>
				</port>
			</output>
		</layer>
		<layer id="364" name="Conv_157/Dims5150/copy_const" type="Const" version="opset1">
			<data offset="1885932" size="928" shape="1,232,1,1" element_type="f32"/>
			<output>
				<port id="1" precision="FP32">
					<dim>1</dim>
					<dim>232</dim>
					<dim>1</dim>
					<dim>1</dim>
				</port>
			</output>
		</layer>
		<layer id="365" name="Conv_157" type="Add" version="opset1">
			<input>
				<port id="0">
					<dim>1</dim>
					<dim>232</dim>
					<dim>10</dim>
					<dim>10</dim>
				</port>
				<port id="1">
					<dim>1</dim>
					<dim>232</dim>
					<dim>1</dim>
					<dim>1</dim>
				</port>
			</input>
			<output>
				<port id="2" precision="FP32">
					<dim>1</dim>
					<dim>232</dim>
					<dim>10</dim>
					<dim>10</dim>
				</port>
			</output>
		</layer>
		<layer id="366" name="LeakyRelu_15813260/Cast_118971_const" type="Const" version="opset1">
			<data offset="2688" size="4" shape="1" element_type="f32"/>
			<output>
				<port id="1" precision="FP32">
					<dim>1</dim>
				</port>
			</output>
		</layer>
		<layer id="367" name="LeakyRelu_15813260" type="PReLU" version="opset1">
			<input>
				<port id="0">
					<dim>1</dim>
					<dim>232</dim>
					<dim>10</dim>
					<dim>10</dim>
				</port>
				<port id="1">
					<dim>1</dim>
				</port>
			</input>
			<output>
				<port id="2" precision="FP32">
					<dim>1</dim>
					<dim>232</dim>
					<dim>10</dim>
					<dim>10</dim>
				</port>
			</output>
		</layer>
		<layer id="368" name="Concat_159" type="Concat" version="opset1">
			<data axis="1"/>
			<input>
				<port id="0">
					<dim>1</dim>
					<dim>232</dim>
					<dim>10</dim>
					<dim>10</dim>
				</port>
				<port id="1">
					<dim>1</dim>
					<dim>232</dim>
					<dim>10</dim>
					<dim>10</dim>
				</port>
			</input>
			<output>
				<port id="2" precision="FP32">
					<dim>1</dim>
					<dim>464</dim>
					<dim>10</dim>
					<dim>10</dim>
				</port>
			</output>
		</layer>
		<layer id="369" name="Reshape_161/Cast_118937_const" type="Const" version="opset1">
			<data offset="1886860" size="40" shape="5" element_type="i64"/>
			<output>
				<port id="1" precision="I64">
					<dim>5</dim>
				</port>
			</output>
		</layer>
		<layer id="370" name="Reshape_161" type="Reshape" version="opset1">
			<data special_zero="True"/>
			<input>
				<port id="0">
					<dim>1</dim>
					<dim>464</dim>
					<dim>10</dim>
					<dim>10</dim>
				</port>
				<port id="1">
					<dim>5</dim>
				</port>
			</input>
			<output>
				<port id="2" precision="FP32">
					<dim>1</dim>
					<dim>2</dim>
					<dim>232</dim>
					<dim>10</dim>
					<dim>10</dim>
				</port>
			</output>
		</layer>
		<layer id="371" name="Transpose_162/Cast_118865_const" type="Const" version="opset1">
			<data offset="31300" size="40" shape="5" element_type="i64"/>
			<output>
				<port id="1" precision="I64">
					<dim>5</dim>
				</port>
			</output>
		</layer>
		<layer id="372" name="Transpose_162" type="Transpose" version="opset1">
			<input>
				<port id="0">
					<dim>1</dim>
					<dim>2</dim>
					<dim>232</dim>
					<dim>10</dim>
					<dim>10</dim>
				</port>
				<port id="1">
					<dim>5</dim>
				</port>
			</input>
			<output>
				<port id="2" precision="FP32">
					<dim>1</dim>
					<dim>232</dim>
					<dim>2</dim>
					<dim>10</dim>
					<dim>10</dim>
				</port>
			</output>
		</layer>
		<layer id="373" name="Reshape_164/Cast_118933_const" type="Const" version="opset1">
			<data offset="1886900" size="32" shape="4" element_type="i64"/>
			<output>
				<port id="1" precision="I64">
					<dim>4</dim>
				</port>
			</output>
		</layer>
		<layer id="374" name="Reshape_164" type="Reshape" version="opset1">
			<data special_zero="True"/>
			<input>
				<port id="0">
					<dim>1</dim>
					<dim>232</dim>
					<dim>2</dim>
					<dim>10</dim>
					<dim>10</dim>
				</port>
				<port id="1">
					<dim>4</dim>
				</port>
			</input>
			<output>
				<port id="2" precision="FP32">
					<dim>1</dim>
					<dim>464</dim>
					<dim>10</dim>
					<dim>10</dim>
				</port>
			</output>
		</layer>
		<layer id="375" name="Split_165/VariadicSplit_input_port_1/value/Output_0/Data__const" type="Const" version="opset1">
			<data offset="31372" size="8" shape="" element_type="i64"/>
			<output>
				<port id="1" precision="I64"/>
			</output>
		</layer>
		<layer id="376" name="Split_165/VariadicSplit_input_port_2/value/Output_0/Data__const" type="Const" version="opset1">
			<data offset="1886932" size="16" shape="2" element_type="i64"/>
			<output>
				<port id="1" precision="I64">
					<dim>2</dim>
				</port>
			</output>
		</layer>
		<layer id="377" name="Split_165/VariadicSplit" type="VariadicSplit" version="opset1">
			<input>
				<port id="0">
					<dim>1</dim>
					<dim>464</dim>
					<dim>10</dim>
					<dim>10</dim>
				</port>
				<port id="1"/>
				<port id="2">
					<dim>2</dim>
				</port>
			</input>
			<output>
				<port id="3" precision="FP32">
					<dim>1</dim>
					<dim>232</dim>
					<dim>10</dim>
					<dim>10</dim>
				</port>
				<port id="4" precision="FP32">
					<dim>1</dim>
					<dim>232</dim>
					<dim>10</dim>
					<dim>10</dim>
				</port>
			</output>
		</layer>
		<layer id="378" name="onnx_initializer_node_983/Output_0/Data__const" type="Const" version="opset1">
			<data offset="1886948" size="215296" shape="232,232,1,1" element_type="f32"/>
			<output>
				<port id="1" precision="FP32">
					<dim>232</dim>
					<dim>232</dim>
					<dim>1</dim>
					<dim>1</dim>
				</port>
			</output>
		</layer>
		<layer id="379" name="Conv_166/WithoutBiases" type="Convolution" version="opset1">
			<data strides="1,1" dilations="1,1" pads_begin="0,0" pads_end="0,0" output_padding="0,0"/>
			<input>
				<port id="0">
					<dim>1</dim>
					<dim>232</dim>
					<dim>10</dim>
					<dim>10</dim>
				</port>
				<port id="1">
					<dim>232</dim>
					<dim>232</dim>
					<dim>1</dim>
					<dim>1</dim>
				</port>
			</input>
			<output>
				<port id="2" precision="FP32">
					<dim>1</dim>
					<dim>232</dim>
					<dim>10</dim>
					<dim>10</dim>
				</port>
			</output>
		</layer>
		<layer id="380" name="Conv_166/Dims4808/copy_const" type="Const" version="opset1">
			<data offset="2102244" size="928" shape="1,232,1,1" element_type="f32"/>
			<output>
				<port id="1" precision="FP32">
					<dim>1</dim>
					<dim>232</dim>
					<dim>1</dim>
					<dim>1</dim>
				</port>
			</output>
		</layer>
		<layer id="381" name="Conv_166" type="Add" version="opset1">
			<input>
				<port id="0">
					<dim>1</dim>
					<dim>232</dim>
					<dim>10</dim>
					<dim>10</dim>
				</port>
				<port id="1">
					<dim>1</dim>
					<dim>232</dim>
					<dim>1</dim>
					<dim>1</dim>
				</port>
			</input>
			<output>
				<port id="2" precision="FP32">
					<dim>1</dim>
					<dim>232</dim>
					<dim>10</dim>
					<dim>10</dim>
				</port>
			</output>
		</layer>
		<layer id="382" name="LeakyRelu_16713316/Cast_118921_const" type="Const" version="opset1">
			<data offset="2688" size="4" shape="1" element_type="f32"/>
			<output>
				<port id="1" precision="FP32">
					<dim>1</dim>
				</port>
			</output>
		</layer>
		<layer id="383" name="LeakyRelu_16713316" type="PReLU" version="opset1">
			<input>
				<port id="0">
					<dim>1</dim>
					<dim>232</dim>
					<dim>10</dim>
					<dim>10</dim>
				</port>
				<port id="1">
					<dim>1</dim>
				</port>
			</input>
			<output>
				<port id="2" precision="FP32">
					<dim>1</dim>
					<dim>232</dim>
					<dim>10</dim>
					<dim>10</dim>
				</port>
			</output>
		</layer>
		<layer id="384" name="1819818201_const" type="Const" version="opset1">
			<data offset="2103172" size="8352" shape="232,1,1,3,3" element_type="f32"/>
			<output>
				<port id="1" precision="FP32">
					<dim>232</dim>
					<dim>1</dim>
					<dim>1</dim>
					<dim>3</dim>
					<dim>3</dim>
				</port>
			</output>
		</layer>
		<layer id="385" name="Conv_168/WithoutBiases" type="GroupConvolution" version="opset1">
…
					<dim>1</dim>
				</port>
			</input>
			<output>
				<port id="2" precision="FP32">
					<dim>1</dim>
					<dim>96</dim>
					<dim>10</dim>
					<dim>10</dim>
				</port>
			</output>
		</layer>
		<layer id="577" name="onnx_initializer_node_head.gfl_cls.2.weight/Output_0/Data__const" type="Const" version="opset1">
			<data offset="3662964" size="12672" shape="33,96,1,1" element_type="f32"/>
			<output>
				<port id="1" precision="FP32">
					<dim>33</dim>
					<dim>96</dim>
					<dim>1</dim>
					<dim>1</dim>
				</port>
			</output>
		</layer>
		<layer id="578" name="Conv_330/WithoutBiases" type="Convolution" version="opset1">
			<data strides="1,1" dilations="1,1" pads_begin="0,0" pads_end="0,0" output_padding="0,0"/>
			<input>
				<port id="0">
					<dim>1</dim>
					<dim>96</dim>
					<dim>10</dim>
					<dim>10</dim>
				</port>
				<port id="1">
					<dim>33</dim>
					<dim>96</dim>
					<dim>1</dim>
					<dim>1</dim>
				</port>
			</input>
			<output>
				<port id="2" precision="FP32">
					<dim>1</dim>
					<dim>33</dim>
					<dim>10</dim>
					<dim>10</dim>
				</port>
			</output>
		</layer>
		<layer id="579" name="Conv_330/Dims5030/copy_const" type="Const" version="opset1">
			<data offset="3675636" size="132" shape="1,33,1,1" element_type="f32"/>
			<output>
				<port id="1" precision="FP32">
					<dim>1</dim>
					<dim>33</dim>
					<dim>1</dim>
					<dim>1</dim>
				</port>
			</output>
		</layer>
		<layer id="580" name="Conv_330" type="Add" version="opset1">
			<input>
				<port id="0">
					<dim>1</dim>
					<dim>33</dim>
					<dim>10</dim>
					<dim>10</dim>
				</port>
				<port id="1">
					<dim>1</dim>
					<dim>33</dim>
					<dim>1</dim>
					<dim>1</dim>
				</port>
			</input>
			<output>
				<port id="2" precision="FP32">
					<dim>1</dim>
					<dim>33</dim>
					<dim>10</dim>
					<dim>10</dim>
				</port>
			</output>
		</layer>
		<layer id="581" name="Split_331/VariadicSplit_input_port_1/value/Output_0/Data__const" type="Const" version="opset1">
			<data offset="31372" size="8" shape="" element_type="i64"/>
			<output>
				<port id="1" precision="I64"/>
			</output>
		</layer>
		<layer id="582" name="Split_331/VariadicSplit_input_port_2/value/Output_0/Data__const" type="Const" version="opset1">
			<data offset="3485704" size="16" shape="2" element_type="i64"/>
			<output>
				<port id="1" precision="I64">
					<dim>2</dim>
				</port>
			</output>
		</layer>
		<layer id="583" name="Split_331/VariadicSplit" type="VariadicSplit" version="opset1">
			<input>
				<port id="0">
					<dim>1</dim>
					<dim>33</dim>
					<dim>10</dim>
					<dim>10</dim>
				</port>
				<port id="1"/>
				<port id="2">
					<dim>2</dim>
				</port>
			</input>
			<output>
				<port id="3" precision="FP32">
					<dim>1</dim>
					<dim>1</dim>
					<dim>10</dim>
					<dim>10</dim>
				</port>
				<port id="4" precision="FP32">
					<dim>1</dim>
					<dim>32</dim>
					<dim>10</dim>
					<dim>10</dim>
				</port>
			</output>
		</layer>
		<layer id="584" name="Sigmoid_332" type="Sigmoid" version="opset1">
			<input>
				<port id="0">
					<dim>1</dim>
					<dim>1</dim>
					<dim>10</dim>
					<dim>10</dim>
				</port>
			</input>
			<output>
				<port id="1" precision="FP32">
					<dim>1</dim>
					<dim>1</dim>
					<dim>10</dim>
					<dim>10</dim>
				</port>
			</output>
		</layer>
		<layer id="585" name="Reshape_334/Cast_118993_const" type="Const" version="opset1">
			<data offset="3485720" size="24" shape="3" element_type="i64"/>
			<output>
				<port id="1" precision="I64">
					<dim>3</dim>
				</port>
			</output>
		</layer>
		<layer id="586" name="Reshape_334" type="Reshape" version="opset1">
			<data special_zero="True"/>
			<input>
				<port id="0">
					<dim>1</dim>
					<dim>1</dim>
					<dim>10</dim>
					<dim>10</dim>
				</port>
				<port id="1">
					<dim>3</dim>
				</port>
			</input>
			<output>
				<port id="2" precision="FP32">
					<dim>1</dim>
					<dim>1</dim>
					<dim>100</dim>
				</port>
			</output>
		</layer>
		<layer id="587" name="Transpose_335/Cast_118901_const" type="Const" version="opset1">
			<data offset="3485744" size="24" shape="3" element_type="i64"/>
			<output>
				<port id="1" precision="I64">
					<dim>3</dim>
				</port>
			</output>
		</layer>
		<layer id="588" name="Transpose_335" type="Transpose" version="opset1">
			<input>
				<port id="0">
					<dim>1</dim>
					<dim>1</dim>
					<dim>100</dim>
				</port>
				<port id="1">
					<dim>3</dim>
				</port>
			</input>
			<output>
				<port id="2" precision="FP32">
					<dim>1</dim>
					<dim>100</dim>
					<dim>1</dim>
				</port>
			</output>
		</layer>
		<layer id="589" name="Transpose_335/sink_port_0" type="Result" version="opset1">
			<input>
				<port id="0">
					<dim>1</dim>
					<dim>100</dim>
					<dim>1</dim>
				</port>
			</input>
		</layer>
		<layer id="590" name="Reshape_337/Cast_119005_const" type="Const" version="opset1">
			<data offset="3485768" size="24" shape="3" element_type="i64"/>
			<output>
				<port id="1" precision="I64">
					<dim>3</dim>
				</port>
			</output>
		</layer>
		<layer id="591" name="Reshape_337" type="Reshape" version="opset1">
			<data special_zero="True"/>
			<input>
				<port id="0">
					<dim>1</dim>
					<dim>32</dim>
					<dim>10</dim>
					<dim>10</dim>
				</port>
				<port id="1">
					<dim>3</dim>
				</port>
			</input>
			<output>
				<port id="2" precision="FP32">
					<dim>1</dim>
					<dim>32</dim>
					<dim>100</dim>
				</port>
			</output>
		</layer>
		<layer id="592" name="Transpose_338/Cast_118849_const" type="Const" version="opset1">
			<data offset="3485744" size="24" shape="3" element_type="i64"/>
			<output>
				<port id="1" precision="I64">
					<dim>3</dim>
				</port>
			</output>
		</layer>
		<layer id="593" name="Transpose_338" type="Transpose" version="opset1">
			<input>
				<port id="0">
					<dim>1</dim>
					<dim>32</dim>
					<dim>100</dim>
				</port>
				<port id="1">
					<dim>3</dim>
				</port>
			</input>
			<output>
				<port id="2" precision="FP32">
					<dim>1</dim>
					<dim>100</dim>
					<dim>32</dim>
				</port>
			</output>
		</layer>
		<layer id="594" name="Transpose_338/sink_port_0" type="Result" version="opset1">
			<input>
				<port id="0">
					<dim>1</dim>
					<dim>100</dim>
					<dim>32</dim>
				</port>
			</input>
		</layer>
	</layers>
	<edges>
		<edge from-layer="0" from-port="0" to-layer="2" to-port="0"/>
		<edge from-layer="1" from-port="1" to-layer="2" to-port="1"/>
		<edge from-layer="2" from-port="2" to-layer="4" to-port="0"/>
		<edge from-layer="3" from-port="1" to-layer="4" to-port="1"/>
		<edge from-layer="4" from-port="2" to-layer="6" to-port="0"/>
		<edge from-layer="5" from-port="1" to-layer="6" to-port="1"/>
		<edge from-layer="6" from-port="2" to-layer="7" to-port="0"/>
		<edge from-layer="7" from-port="1" to-layer="9" to-port="0"/>
		<edge from-layer="8" from-port="1" to-layer="9" to-port="1"/>
		<edge from-layer="9" from-port="2" to-layer="11" to-port="0"/>
		<edge from-layer="10" from-port="1" to-layer="11" to-port="1"/>
		<edge from-layer="11" from-port="2" to-layer="13" to-port="0"/>
		<edge from-layer="12" from-port="1" to-layer="13" to-port="1"/>
		<edge from-layer="13" from-port="2" to-layer="15" to-port="0"/>
		<edge from-layer="14" from-port="1" to-layer="15" to-port="1"/>
		<edge from-layer="15" from-port="2" to-layer="17" to-port="0"/>
		<edge from-layer="16" from-port="1" to-layer="17" to-port="1"/>
		<edge from-layer="7" from-port="1" to-layer="19" to-port="0"/>
		<edge from-layer="18" from-port="1" to-layer="19" to-port="1"/>
		<edge from-layer="19" from-port="2" to-layer="21" to-port="0"/>
		<edge from-layer="20" from-port="1" to-layer="21" to-port="1"/>
		<edge from-layer="21" from-port="2" to-layer="23" to-port="0"/>
		<edge from-layer="22" from-port="1" to-layer="23" to-port="1"/>
		<edge from-layer="23" from-port="2" to-layer="25" to-port="0"/>
		<edge from-layer="24" from-port="1" to-layer="25" to-port="1"/>
		<edge from-layer="25" from-port="2" to-layer="27" to-port="0"/>
		<edge from-layer="26" from-port="1" to-layer="27" to-port="1"/>
		<edge from-layer="27" from-port="2" to-layer="29" to-port="0"/>
		<edge from-layer="28" from-port="1" to-layer="29" to-port="1"/>
		<edge from-layer="29" from-port="2" to-layer="31" to-port="0"/>
		<edge from-layer="30" from-port="1" to-layer="31" to-port="1"/>
		<edge from-layer="31" from-port="2" to-layer="33" to-port="0"/>
		<edge from-layer="32" from-port="1" to-layer="33" to-port="1"/>
		<edge from-layer="17" from-port="2" to-layer="34" to-port="0"/>
		<edge from-layer="33" from-port="2" to-layer="34" to-port="1"/>
		<edge from-layer="34" from-port="2" to-layer="36" to-port="0"/>
		<edge from-layer="35" from-port="1" to-layer="36" to-port="1"/>
		<edge from-layer="36" from-port="2" to-layer="38" to-port="0"/>
		<edge from-layer="37" from-port="1" to-layer="38" to-port="1"/>
		<edge from-layer="38" from-port="2" to-layer="40" to-port="0"/>
		<edge from-layer="39" from-port="1" to-layer="40" to-port="1"/>
		<edge from-layer="40" from-port="2" to-layer="43" to-port="0"/>
		<edge from-layer="41" from-port="1" to-layer="43" to-port="1"/>
		<edge from-layer="42" from-port="1" to-layer="43" to-port="2"/>
		<edge from-layer="43" from-port="4" to-layer="45" to-port="0"/>
		<edge from-layer="44" from-port="1" to-layer="45" to-port="1"/>
		<edge from-layer="45" from-port="2" to-layer="47" to-port="0"/>
		<edge from-layer="46" from-port="1" to-layer="47" to-port="1"/>
		<edge from-layer="47" from-port="2" to-layer="49" to-port="0"/>
		<edge from-layer="48" from-port="1" to-layer="49" to-port="1"/>
		<edge from-layer="49" from-port="2" to-layer="51" to-port="0"/>
		<edge from-layer="50" from-port="1" to-layer="51" to-port="1"/>
		<edge from-layer="51" from-port="2" to-layer="53" to-port="0"/>
		<edge from-layer="52" from-port="1" to-layer="53" to-port="1"/>
		<edge from-layer="53" from-port="2" to-layer="55" to-port="0"/>
		<edge from-layer="54" from-port="1" to-layer="55" to-port="1"/>
		<edge from-layer="55" from-port="2" to-layer="57" to-port="0"/>
		<edge from-layer="56" from-port="1" to-layer="57" to-port="1"/>
		<edge from-layer="57" from-port="2" to-layer="59" to-port="0"/>
		<edge from-layer="58" from-port="1" to-layer="59" to-port="1"/>
		<edge from-layer="43" from-port="3" to-layer="60" to-port="0"/>
		<edge from-layer="59" from-port="2" to-layer="60" to-port="1"/>
		<edge from-layer="60" from-port="2" to-layer="62" to-port="0"/>
		<edge from-layer="61" from-port="1" to-layer="62" to-port="1"/>
		<edge from-layer="62" from-port="2" to-layer="64" to-port="0"/>
		<edge from-layer="63" from-port="1" to-layer="64" to-port="1"/>
		<edge from-layer="64" from-port="2" to-layer="66" to-port="0"/>
		<edge from-layer="65" from-port="1" to-layer="66" to-port="1"/>
		<edge from-layer="66" from-port="2" to-layer="69" to-port="0"/>
		<edge from-layer="67" from-port="1" to-layer="69" to-port="1"/>
		<edge from-layer="68" from-port="1" to-layer="69" to-port="2"/>
		<edge from-layer="69" from-port="4" to-layer="71" to-port="0"/>
		<edge from-layer="70" from-port="1" to-layer="71" to-port="1"/>
		<edge from-layer="71" from-port="2" to-layer="73" to-port="0"/>
		<edge from-layer="72" from-port="1" to-layer="73" to-port="1"/>
		<edge from-layer="73" from-port="2" to-layer="75" to-port="0"/>
		<edge from-layer="74" from-port="1" to-layer="75" to-port="1"/>
		<edge from-layer="75" from-port="2" to-layer="77" to-port="0"/>
		<edge from-layer="76" from-port="1" to-layer="77" to-port="1"/>
		<edge from-layer="77" from-port="2" to-layer="79" to-port="0"/>
		<edge from-layer="78" from-port="1" to-layer="79" to-port="1"/>
		<edge from-layer="79" from-port="2" to-layer="81" to-port="0"/>
		<edge from-layer="80" from-port="1" to-layer="81" to-port="1"/>
		<edge from-layer="81" from-port="2" to-layer="83" to-port="0"/>
		<edge from-layer="82" from-port="1" to-layer="83" to-port="1"/>
		<edge from-layer="83" from-port="2" to-layer="85" to-port="0"/>
		<edge from-layer="84" from-port="1" to-layer="85" to-port="1"/>
		<edge from-layer="69" from-port="3" to-layer="86" to-port="0"/>
		<edge from-layer="85" from-port="2" to-layer="86" to-port="1"/>
		<edge from-layer="86" from-port="2" to-layer="88" to-port="0"/>
		<edge from-layer="87" from-port="1" to-layer="88" to-port="1"/>
		<edge from-layer="88" from-port="2" to-layer="90" to-port="0"/>
		<edge from-layer="89" from-port="1" to-layer="90" to-port="1"/>
		<edge from-layer="90" from-port="2" to-layer="92" to-port="0"/>
		<edge from-layer="91" from-port="1" to-layer="92" to-port="1"/>
		<edge from-layer="92" from-port="2" to-layer="95" to-port="0"/>
		<edge from-layer="93" from-port="1" to-layer="95" to-port="1"/>
		<edge from-layer="94" from-port="1" to-layer="95" to-port="2"/>
		<edge from-layer="95" from-port="4" to-layer="97" to-port="0"/>
		<edge from-layer="96" from-port="1" to-layer="97" to-port="1"/>
		<edge from-layer="97" from-port="2" to-layer="99" to-port="0"/>
		<edge from-layer="98" from-port="1" to-layer="99" to-port="1"/>
		<edge from-layer="99" from-port="2" to-layer="101" to-port="0"/>
		<edge from-layer="100" from-port="1" to-layer="101" to-port="1"/>
		<edge from-layer="101" from-port="2" to-layer="103" to-port="0"/>
		<edge from-layer="102" from-port="1" to-layer="103" to-port="1"/>
		<edge from-layer="103" from-port="2" to-layer="105" to-port="0"/>
		<edge from-layer="104" from-port="1" to-layer="105" to-port="1"/>
		<edge from-layer="105" from-port="2" to-layer="107" to-port="0"/>
		<edge from-layer="106" from-port="1" to-layer="107" to-port="1"/>
		<edge from-layer="107" from-port="2" to-layer="109" to-port="0"/>
		<edge from-layer="108" from-port="1" to-layer="109" to-port="1"/>
		<edge from-layer="109" from-port="2" to-layer="111" to-port="0"/>
		<edge from-layer="110" from-port="1" to-layer="111" to-port="1"/>
		<edge from-layer="95" from-port="3" to-layer="112" to-port="0"/>
		<edge from-layer="111" from-port="2" to-layer="112" to-port="1"/>
		<edge from-layer="112" from-port="2" to-layer="114" to-port="0"/>
		<edge from-layer="113" from-port="1" to-layer="114" to-port="1"/>
		<edge from-layer="114" from-port="2" to-layer="116" to-port="0"/>
		<edge from-layer="115" from-port="1" to-layer="116" to-port="1"/>
		<edge from-layer="116" from-port="2" to-layer="118" to-port="0"/>
		<edge from-layer="117" from-port="1" to-layer="118" to-port="1"/>
		<edge from-layer="118" from-port="2" to-layer="120" to-port="0"/>
		<edge from-layer="119" from-port="1" to-layer="120" to-port="1"/>
		<edge from-layer="120" from-port="2" to-layer="122" to-port="0"/>
		<edge from-layer="121" from-port="1" to-layer="122" to-port="1"/>
		<edge from-layer="118" from-port="2" to-layer="124" to-port="0"/>
		<edge from-layer="123" from-port="1" to-layer="124" to-port="1"/>
		<edge from-layer="124" from-port="2" to-layer="126" to-port="0"/>
		<edge from-layer="125" from-port="1" to-layer="126" to-port="1"/>
		<edge from-layer="126" from-port="2" to-layer="128" to-port="0"/>
		<edge from-layer="127" from-port="1" to-layer="128" to-port="1"/>
		<edge from-layer="128" from-port="2" to-layer="130" to-port="0"/>
		<edge from-layer="129" from-port="1" to-layer="130" to-port="1"/>
		<edge from-layer="130" from-port="2" to-layer="132" to-port="0"/>
		<edge from-layer="131" from-port="1" to-layer="132" to-port="1"/>
		<edge from-layer="118" from-port="2" to-layer="134" to-port="0"/>
		<edge from-layer="133" from-port="1" to-layer="134" to-port="1"/>
		<edge from-layer="134" from-port="2" to-layer="136" to-port="0"/>
		<edge from-layer="135" from-port="1" to-layer="136" to-port="1"/>
		<edge from-layer="136" from-port="2" to-layer="138" to-port="0"/>
		<edge from-layer="137" from-port="1" to-layer="138" to-port="1"/>
		<edge from-layer="138" from-port="2" to-layer="140" to-port="0"/>
		<edge from-layer="139" from-port="1" to-layer="140" to-port="1"/>
		<edge from-layer="140" from-port="2" to-layer="142" to-port="0"/>
		<edge from-layer="141" from-port="1" to-layer="142" to-port="1"/>
		<edge from-layer="142" from-port="2" to-layer="144" to-port="0"/>
		<edge from-layer="143" from-port="1" to-layer="144" to-port="1"/>
		<edge from-layer="144" from-port="2" to-layer="146" to-port="0"/>
		<edge from-layer="145" from-port="1" to-layer="146" to-port="1"/>
		<edge from-layer="146" from-port="2" to-layer="148" to-port="0"/>
		<edge from-layer="147" from-port="1" to-layer="148" to-port="1"/>
		<edge from-layer="132" from-port="2" to-layer="149" to-port="0"/>
		<edge from-layer="148" from-port="2" to-layer="149" to-port="1"/>
		<edge from-layer="149" from-port="2" to-layer="151" to-port="0"/>
		<edge from-layer="150" from-port="1" to-layer="151" to-port="1"/>
		<edge from-layer="151" from-port="2" to-layer="153" to-port="0"/>
		<edge from-layer="152" from-port="1" to-layer="153" to-port="1"/>
		<edge from-layer="153" from-port="2" to-layer="155" to-port="0"/>
		<edge from-layer="154" from-port="1" to-layer="155" to-port="1"/>
		<edge from-layer="155" from-port="2" to-layer="158" to-port="0"/>
		<edge from-layer="156" from-port="1" to-layer="158" to-port="1"/>
		<edge from-layer="157" from-port="1" to-layer="158" to-port="2"/>
		<edge from-layer="158" from-port="4" to-layer="160" to-port="0"/>
		<edge from-layer="159" from-port="1" to-layer="160" to-port="1"/>
		<edge from-layer="160" from-port="2" to-layer="162" to-port="0"/>
		<edge from-layer="161" from-port="1" to-layer="162" to-port="1"/>
		<edge from-layer="162" from-port="2" to-layer="164" to-port="0"/>
		<edge from-layer="163" from-port="1" to-layer="164" to-port="1"/>
		<edge from-layer="164" from-port="2" to-layer="166" to-port="0"/>
		<edge from-layer="165" from-port="1" to-layer="166" to-port="1"/>
		<edge from-layer="166" from-port="2" to-layer="168" to-port="0"/>
		<edge from-layer="167" from-port="1" to-layer="168" to-port="1"/>
		<edge from-layer="168" from-port="2" to-layer="170" to-port="0"/>
		<edge from-layer="169" from-port="1" to-layer="170" to-port="1"/>
		<edge from-layer="170" from-port="2" to-layer="172" to-port="0"/>
		<edge from-layer="171" from-port="1" to-layer="172" to-port="1"/>
		<edge from-layer="172" from-port="2" to-layer="174" to-port="0"/>
		<edge from-layer="173" from-port="1" to-layer="174" to-port="1"/>
		<edge from-layer="158" from-port="3" to-layer="175" to-port="0"/>
		<edge from-layer="174" from-port="2" to-layer="175" to-port="1"/>
		<edge from-layer="175" from-port="2" to-layer="177" to-port="0"/>
		<edge from-layer="176" from-port="1" to-layer="177" to-port="1"/>
		<edge from-layer="177" from-port="2" to-layer="179" to-port="0"/>
		<edge from-layer="178" from-port="1" to-layer="179" to-port="1"/>
		<edge from-layer="179" from-port="2" to-layer="181" to-port="0"/>
		<edge from-layer="180" from-port="1" to-layer="181" to-port="1"/>
		<edge from-layer="181" from-port="2" to-layer="184" to-port="0"/>
		<edge from-layer="182" from-port="1" to-layer="184" to-port="1"/>
		<edge from-layer="183" from-port="1" to-layer="184" to-port="2"/>
		<edge from-layer="184" from-port="4" to-layer="186" to-port="0"/>
		<edge from-layer="185" from-port="1" to-layer="186" to-port="1"/>
		<edge from-layer="186" from-port="2" to-layer="188" to-port="0"/>
		<edge from-layer="187" from-port="1" to-layer="188" to-port="1"/>
		<edge from-layer="188" from-port="2" to-layer="190" to-port="0"/>
		<edge from-layer="189" from-port="1" to-layer="190" to-port="1"/>
		<edge from-layer="190" from-port="2" to-layer="192" to-port="0"/>
		<edge from-layer="191" from-port="1" to-layer="192" to-port="1"/>
		<edge from-layer="192" from-port="2" to-layer="194" to-port="0"/>
		<edge from-layer="193" from-port="1" to-layer="194" to-port="1"/>
		<edge from-layer="194" from-port="2" to-layer="196" to-port="0"/>
		<edge from-layer="195" from-port="1" to-layer="196" to-port="1"/>
		<edge from-layer="196" from-port="2" to-layer="198" to-port="0"/>
		<edge from-layer="197" from-port="1" to-layer="198" to-port="1"/>
		<edge from-layer="198" from-port="2" to-layer="200" to-port="0"/>
		<edge from-layer="199" from-port="1" to-layer="200" to-port="1"/>
		<edge from-layer="184" from-port="3" to-layer="201" to-port="0"/>
		<edge from-layer="200" from-port="2" to-layer="201" to-port="1"/>
		<edge from-layer="201" from-port="2" to-layer="203" to-port="0"/>
		<edge from-layer="202" from-port="1" to-layer="203" to-port="1"/>
		<edge from-layer="203" from-port="2" to-layer="205" to-port="0"/>
		<edge from-layer="204" from-port="1" to-layer="205" to-port="1"/>
		<edge from-layer="205" from-port="2" to-layer="207" to-port="0"/>
		<edge from-layer="206" from-port="1" to-layer="207" to-port="1"/>
		<edge from-layer="207" from-port="2" to-layer="210" to-port="0"/>
		<edge from-layer="208" from-port="1" to-layer="210" to-port="1"/>
		<edge from-layer="209" from-port="1" to-layer="210" to-port="2"/>
		<edge from-layer="210" from-port="4" to-layer="212" to-port="0"/>
		<edge from-layer="211" from-port="1" to-layer="212" to-port="1"/>
		<edge from-layer="212" from-port="2" to-layer="214" to-port="0"/>
		<edge from-layer="213" from-port="1" to-layer="214" to-port="1"/>
		<edge from-layer="214" from-port="2" to-layer="216" to-port="0"/>
		<edge from-layer="215" from-port="1" to-layer="216" to-port="1"/>
		<edge from-layer="216" from-port="2" to-layer="218" to-port="0"/>
		<edge from-layer="217" from-port="1" to-layer="218" to-port="1"/>
		<edge from-layer="218" from-port="2" to-layer="220" to-port="0"/>
		<edge from-layer="219" from-port="1" to-layer="220" to-port="1"/>
		<edge from-layer="220" from-port="2" to-layer="222" to-port="0"/>
		<edge from-layer="221" from-port="1" to-layer="222" to-port="1"/>
		<edge from-layer="222" from-port="2" to-layer="224" to-port="0"/>
		<edge from-layer="223" from-port="1" to-layer="224" to-port="1"/>
		<edge from-layer="224" from-port="2" to-layer="226" to-port="0"/>
		<edge from-layer="225" from-port="1" to-layer="226" to-port="1"/>
		<edge from-layer="210" from-port="3" to-layer="227" to-port="0"/>
		<edge from-layer="226" from-port="2" to-layer="227" to-port="1"/>
		<edge from-layer="227" from-port="2" to-layer="229" to-port="0"/>
		<edge from-layer="228" from-port="1" to-layer="229" to-port="1"/>
		<edge from-layer="229" from-port="2" to-layer="231" to-port="0"/>
		<edge from-layer="230" from-port="1" to-layer="231" to-port="1"/>
		<edge from-layer="231" from-port="2" to-layer="233" to-port="0"/>
		<edge from-layer="232" from-port="1" to-layer="233" to-port="1"/>
		<edge from-layer="233" from-port="2" to-layer="236" to-port="0"/>
		<edge from-layer="234" from-port="1" to-layer="236" to-port="1"/>
		<edge from-layer="235" from-port="1" to-layer="236" to-port="2"/>
		<edge from-layer="236" from-port="4" to-layer="238" to-port="0"/>
		<edge from-layer="237" from-port="1" to-layer="238" to-port="1"/>
		<edge from-layer="238" from-port="2" to-layer="240" to-port="0"/>
		<edge from-layer="239" from-port="1" to-layer="240" to-port="1"/>
		<edge from-layer="240" from-port="2" to-layer="242" to-port="0"/>
		<edge from-layer="241" from-port="1" to-layer="242" to-port="1"/>
		<edge from-layer="242" from-port="2" to-layer="244" to-port="0"/>
		<edge from-layer="243" from-port="1" to-layer="244" to-port="1"/>
		<edge from-layer="244" from-port="2" to-layer="246" to-port="0"/>
		<edge from-layer="245" from-port="1" to-layer="246" to-port="1"/>
		<edge from-layer="246" from-port="2" to-layer="248" to-port="0"/>
		<edge from-layer="247" from-port="1" to-layer="248" to-port="1"/>
		<edge from-layer="248" from-port="2" to-layer="250" to-port="0"/>
		<edge from-layer="249" from-port="1" to-layer="250" to-port="1"/>
		<edge from-layer="250" from-port="2" to-layer="252" to-port="0"/>
		<edge from-layer="251" from-port="1" to-layer="252" to-port="1"/>
		<edge from-layer="236" from-port="3" to-layer="253" to-port="0"/>
		<edge from-layer="252" from-port="2" to-layer="253" to-port="1"/>
		<edge from-layer="253" from-port="2" to-layer="255" to-port="0"/>
		<edge from-layer="254" from-port="1" to-layer="255" to-port="1"/>
		<edge from-layer="255" from-port="2" to-layer="257" to-port="0"/>
		<edge from-layer="256" from-port="1" to-layer="257" to-port="1"/>
		<edge from-layer="257" from-port="2" to-layer="259" to-port="0"/>
		<edge from-layer="258" from-port="1" to-layer="259" to-port="1"/>
		<edge from-layer="259" from-port="2" to-layer="262" to-port="0"/>
		<edge from-layer="260" from-port="1" to-layer="262" to-port="1"/>
		<edge from-layer="261" from-port="1" to-layer="262" to-port="2"/>
		<edge from-layer="262" from-port="4" to-layer="264" to-port="0"/>
		<edge from-layer="263" from-port="1" to-layer="264" to-port="1"/>
		<edge from-layer="264" from-port="2" to-layer="266" to-port="0"/>
		<edge from-layer="265" from-port="1" to-layer="266" to-port="1"/>
		<edge from-layer="266" from-port="2" to-layer="268" to-port="0"/>
		<edge from-layer="267" from-port="1" to-layer="268" to-port="1"/>
		<edge from-layer="268" from-port="2" to-layer="270" to-port="0"/>
		<edge from-layer="269" from-port="1" to-layer="270" to-port="1"/>
		<edge from-layer="270" from-port="2" to-layer="272" to-port="0"/>
		<edge from-layer="271" from-port="1" to-layer="272" to-port="1"/>
		<edge from-layer="272" from-port="2" to-layer="274" to-port="0"/>
		<edge from-layer="273" from-port="1" to-layer="274" to-port="1"/>
		<edge from-layer="274" from-port="2" to-layer="276" to-port="0"/>
		<edge from-layer="275" from-port="1" to-layer="276" to-port="1"/>
		<edge from-layer="276" from-port="2" to-layer="278" to-port="0"/>
		<edge from-layer="277" from-port="1" to-layer="278" to-port="1"/>
		<edge from-layer="262" from-port="3" to-layer="279" to-port="0"/>
		<edge from-layer="278" from-port="2" to-layer="279" to-port="1"/>
		<edge from-layer="279" from-port="2" to-layer="281" to-port="0"/>
		<edge from-layer="280" from-port="1" to-layer="281" to-port="1"/>
		<edge from-layer="281" from-port="2" to-layer="283" to-port="0"/>
		<edge from-layer="282" from-port="1" to-layer="283" to-port="1"/>
		<edge from-layer="283" from-port="2" to-layer="285" to-port="0"/>
		<edge from-layer="284" from-port="1" to-layer="285" to-port="1"/>
		<edge from-layer="285" from-port="2" to-layer="288" to-port="0"/>
		<edge from-layer="286" from-port="1" to-layer="288" to-port="1"/>
		<edge from-layer="287" from-port="1" to-layer="288" to-port="2"/>
		<edge from-layer="288" from-port="4" to-layer="290" to-port="0"/>
		<edge from-layer="289" from-port="1" to-layer="290" to-port="1"/>
		<edge from-layer="290" from-port="2" to-layer="292" to-port="0"/>
		<edge from-layer="291" from-port="1" to-layer="292" to-port="1"/>
		<edge from-layer="292" from-port="2" to-layer="294" to-port="0"/>
		<edge from-layer="293" from-port="1" to-layer="294" to-port="1"/>
		<edge from-layer="294" from-port="2" to-layer="296" to-port="0"/>
		<edge from-layer="295" from-port="1" to-layer="296" to-port="1"/>
		<edge from-layer="296" from-port="2" to-layer="298" to-port="0"/>
		<edge from-layer="297" from-port="1" to-layer="298" to-port="1"/>
		<edge from-layer="298" from-port="2" to-layer="300" to-port="0"/>
		<edge from-layer="299" from-port="1" to-layer="300" to-port="1"/>
		<edge from-layer="300" from-port="2" to-layer="302" to-port="0"/>
		<edge from-layer="301" from-port="1" to-layer="302" to-port="1"/>
		<edge from-layer="302" from-port="2" to-layer="304" to-port="0"/>
		<edge from-layer="303" from-port="1" to-layer="304" to-port="1"/>
		<edge from-layer="288" from-port="3" to-layer="305" to-port="0"/>
		<edge from-layer="304" from-port="2" to-layer="305" to-port="1"/>
		<edge from-layer="305" from-port="2" to-layer="307" to-port="0"/>
		<edge from-layer="306" from-port="1" to-layer="307" to-port="1"/>
		<edge from-layer="307" from-port="2" to-layer="309" to-port="0"/>
		<edge from-layer="308" from-port="1" to-layer="309" to-port="1"/>
		<edge from-layer="309" from-port="2" to-layer="311" to-port="0"/>
		<edge from-layer="310" from-port="1" to-layer="311" to-port="1"/>
		<edge from-layer="311" from-port="2" to-layer="314" to-port="0"/>
		<edge from-layer="312" from-port="1" to-layer="314" to-port="1"/>
		<edge from-layer="313" from-port="1" to-layer="314" to-port="2"/>
		<edge from-layer="314" from-port="4" to-layer="316" to-port="0"/>
		<edge from-layer="315" from-port="1" to-layer="316" to-port="1"/>
		<edge from-layer="316" from-port="2" to-layer="318" to-port="0"/>
		<edge from-layer="317" from-port="1" to-layer="318" to-port="1"/>
		<edge from-layer="318" from-port="2" to-layer="320" to-port="0"/>
		<edge from-layer="319" from-port="1" to-layer="320" to-port="1"/>
		<edge from-layer="320" from-port="2" to-layer="322" to-port="0"/>
		<edge from-layer="321" from-port="1" to-layer="322" to-port="1"/>
		<edge from-layer="322" from-port="2" to-layer="324" to-port="0"/>
		<edge from-layer="323" from-port="1" to-layer="324" to-port="1"/>
		<edge from-layer="324" from-port="2" to-layer="326" to-port="0"/>
		<edge from-layer="325" from-port="1" to-layer="326" to-port="1"/>
		<edge from-layer="326" from-port="2" to-layer="328" to-port="0"/>
		<edge from-layer="327" from-port="1" to-layer="328" to-port="1"/>
		<edge from-layer="328" from-port="2" to-layer="330" to-port="0"/>
		<edge from-layer="329" from-port="1" to-layer="330" to-port="1"/>
		<edge from-layer="314" from-port="3" to-layer="331" to-port="0"/>
		<edge from-layer="330" from-port="2" to-layer="331" to-port="1"/>
		<edge from-layer="331" from-port="2" to-layer="333" to-port="0"/>
		<edge from-layer="332" from-port="1" to-layer="333" to-port="1"/>
		<edge from-layer="333" from-port="2" to-layer="335" to-port="0"/>
		<edge from-layer="334" from-port="1" to-layer="335" to-port="1"/>
		<edge from-layer="335" from-port="2" to-layer="337" to-port="0"/>
		<edge from-layer="336" from-port="1" to-layer="337" to-port="1"/>
		<edge from-layer="337" from-port="2" to-layer="339" to-port="0"/>
		<edge from-layer="338" from-port="1" to-layer="339" to-port="1"/>
		<edge from-layer="339" from-port="2" to-layer="341" to-port="0"/>
		<edge from-layer="340" from-port="1" to-layer="341" to-port="1"/>
		<edge from-layer="337" from-port="2" to-layer="343" to-port="0"/>
		<edge from-layer="342" from-port="1" to-layer="343" to-port="1"/>
		<edge from-layer="343" from-port="2" to-layer="345" to-port="0"/>
		<edge from-layer="344" from-port="1" to-layer="345" to-port="1"/>
		<edge from-layer="345" from-port="2" to-layer="347" to-port="0"/>
		<edge from-layer="346" from-port="1" to-layer="347" to-port="1"/>
		<edge from-layer="347" from-port="2" to-layer="349" to-port="0"/>
		<edge from-layer="348" from-port="1" to-layer="349" to-port="1"/>
		<edge from-layer="349" from-port="2" to-layer="351" to-port="0"/>
		<edge from-layer="350" from-port="1" to-layer="351" to-port="1"/>
		<edge from-layer="337" from-port="2" to-layer="353" to-port="0"/>
		<edge from-layer="352" from-port="1" to-layer="353" to-port="1"/>
		<edge from-layer="353" from-port="2" to-layer="355" to-port="0"/>
		<edge from-layer="354" from-port="1" to-layer="355" to-port="1"/>
		<edge from-layer="355" from-port="2" to-layer="357" to-port="0"/>
		<edge from-layer="356" from-port="1" to-layer="357" to-port="1"/>
		<edge from-layer="357" from-port="2" to-layer="359" to-port="0"/>
		<edge from-layer="358" from-port="1" to-layer="359" to-port="1"/>
		<edge from-layer="359" from-port="2" to-layer="361" to-port="0"/>
		<edge from-layer="360" from-port="1" to-layer="361" to-port="1"/>
		<edge from-layer="361" from-port="2" to-layer="363" to-port="0"/>
		<edge from-layer="362" from-port="1" to-layer="363" to-port="1"/>
		<edge from-layer="363" from-port="2" to-layer="365" to-port="0"/>
		<edge from-layer="364" from-port="1" to-layer="365" to-port="1"/>
		<edge from-layer="365" from-port="2" to-layer="367" to-port="0"/>
		<edge from-layer="366" from-port="1" to-layer="367" to-port="1"/>
		<edge from-layer="351" from-port="2" to-layer="368" to-port="0"/>
		<edge from-layer="367" from-port="2" to-layer="368" to-port="1"/>
		<edge from-layer="368" from-port="2" to-layer="370" to-port="0"/>
		<edge from-layer="369" from-port="1" to-layer="370" to-port="1"/>
		<edge from-layer="370" from-port="2" to-layer="372" to-port="0"/>
		<edge from-layer="371" from-port="1" to-layer="372" to-port="1"/>
		<edge from-layer="372" from-port="2" to-layer="374" to-port="0"/>
		<edge from-layer="373" from-port="1" to-layer="374" to-port="1"/>
		<edge from-layer="374" from-port="2" to-layer="377" to-port="0"/>
		<edge from-layer="375" from-port="1" to-layer="377" to-port="1"/>
		<edge from-layer="376" from-port="1" to-layer="377" to-port="2"/>
		<edge from-layer="377" from-port="4" to-layer="379" to-port="0"/>
		<edge from-layer="378" from-port="1" to-layer="379" to-port="1"/>
		<edge from-layer="379" from-port="2" to-layer="381" to-port="0"/>
		<edge from-layer="380" from-port="1" to-layer="381" to-port="1"/>
		<edge from-layer="381" from-port="2" to-layer="383" to-port="0"/>
		<edge from-layer="382" from-port="1" to-layer="383" to-port="1"/>
		<edge from-layer="383" from-port="2" to-layer="385" to-port="0"/>
		<edge from-layer="384" from-port="1" to-layer="385" to-port="1"/>
		<edge from-layer="385" from-port="2" to-layer="387" to-port="0"/>
		<edge from-layer="386" from-port="1" to-layer="387" to-port="1"/>
		<edge from-layer="387" from-port="2" to-layer="389" to-port="0"/>
		<edge from-layer="388" from-port="1" to-layer="389" to-port="1"/>
		<edge from-layer="389" from-port="2" to-layer="391" to-port="0"/>
		<edge from-layer="390" from-port="1" to-layer="391" to-port="1"/>
		<edge from-layer="391" from-port="2" to-layer="393" to-port="0"/>
		<edge from-layer="392" from-port="1" to-layer="393" to-port="1"/>
		<edge from-layer="377" from-port="3" to-layer="394" to-port="0"/>
		<edge from-layer="393" from-port="2" to-layer="394" to-port="1"/>
		<edge from-layer="394" from-port="2" to-layer="396" to-port="0"/>
		<edge from-layer="395" from-port="1" to-layer="396" to-port="1"/>
		<edge from-layer="396" from-port="2" to-layer="398" to-port="0"/>
		<edge from-layer="397" from-port="1" to-layer="398" to-port="1"/>
		<edge from-layer="398" from-port="2" to-layer="400" to-port="0"/>
		<edge from-layer="399" from-port="1" to-layer="400" to-port="1"/>
		<edge from-layer="400" from-port="2" to-layer="403" to-port="0"/>
		<edge from-layer="401" from-port="1" to-layer="403" to-port="1"/>
		<edge from-layer="402" from-port="1" to-layer="403" to-port="2"/>
		<edge from-layer="403" from-port="4" to-layer="405" to-port="0"/>
		<edge from-layer="404" from-port="1" to-layer="405" to-port="1"/>
		<edge from-layer="405" from-port="2" to-layer="407" to-port="0"/>
		<edge from-layer="406" from-port="1" to-layer="407" to-port="1"/>
		<edge from-layer="407" from-port="2" to-layer="409" to-port="0"/>
		<edge from-layer="408" from-port="1" to-layer="409" to-port="1"/>
		<edge from-layer="409" from-port="2" to-layer="411" to-port="0"/>
		<edge from-layer="410" from-port="1" to-layer="411" to-port="1"/>
		<edge from-layer="411" from-port="2" to-layer="413" to-port="0"/>
		<edge from-layer="412" from-port="1" to-layer="413" to-port="1"/>
		<edge from-layer="413" from-port="2" to-layer="415" to-port="0"/>
		<edge from-layer="414" from-port="1" to-layer="415" to-port="1"/>
		<edge from-layer="415" from-port="2" to-layer="417" to-port="0"/>
		<edge from-layer="416" from-port="1" to-layer="417" to-port="1"/>
		<edge from-layer="417" from-port="2" to-layer="419" to-port="0"/>
		<edge from-layer="418" from-port="1" to-layer="419" to-port="1"/>
		<edge from-layer="403" from-port="3" to-layer="420" to-port="0"/>
		<edge from-layer="419" from-port="2" to-layer="420" to-port="1"/>
		<edge from-layer="420" from-port="2" to-layer="422" to-port="0"/>
		<edge from-layer="421" from-port="1" to-layer="422" to-port="1"/>
		<edge from-layer="422" from-port="2" to-layer="424" to-port="0"/>
		<edge from-layer="423" from-port="1" to-layer="424" to-port="1"/>
		<edge from-layer="424" from-port="2" to-layer="426" to-port="0"/>
		<edge from-layer="425" from-port="1" to-layer="426" to-port="1"/>
		<edge from-layer="426" from-port="2" to-layer="429" to-port="0"/>
		<edge from-layer="427" from-port="1" to-layer="429" to-port="1"/>
		<edge from-layer="428" from-port="1" to-layer="429" to-port="2"/>
		<edge from-layer="429" from-port="4" to-layer="431" to-port="0"/>
		<edge from-layer="430" from-port="1" to-layer="431" to-port="1"/>
		<edge from-layer="431" from-port="2" to-layer="433" to-port="0"/>
		<edge from-layer="432" from-port="1" to-layer="433" to-port="1"/>
		<edge from-layer="433" from-port="2" to-layer="435" to-port="0"/>
		<edge from-layer="434" from-port="1" to-layer="435" to-port="1"/>
		<edge from-layer="435" from-port="2" to-layer="437" to-port="0"/>
		<edge from-layer="436" from-port="1" to-layer="437" to-port="1"/>
		<edge from-layer="437" from-port="2" to-layer="439" to-port="0"/>
		<edge from-layer="438" from-port="1" to-layer="439" to-port="1"/>
		<edge from-layer="439" from-port="2" to-layer="441" to-port="0"/>
		<edge from-layer="440" from-port="1" to-layer="441" to-port="1"/>
		<edge from-layer="441" from-port="2" to-layer="443" to-port="0"/>
		<edge from-layer="442" from-port="1" to-layer="443" to-port="1"/>
		<edge from-layer="443" from-port="2" to-layer="445" to-port="0"/>
		<edge from-layer="444" from-port="1" to-layer="445" to-port="1"/>
		<edge from-layer="429" from-port="3" to-layer="446" to-port="0"/>
		<edge from-layer="445" from-port="2" to-layer="446" to-port="1"/>
		<edge from-layer="446" from-port="2" to-layer="448" to-port="0"/>
		<edge from-layer="447" from-port="1" to-layer="448" to-port="1"/>
		<edge from-layer="448" from-port="2" to-layer="450" to-port="0"/>
		<edge from-layer="449" from-port="1" to-layer="450" to-port="1"/>
		<edge from-layer="450" from-port="2" to-layer="452" to-port="0"/>
		<edge from-layer="451" from-port="1" to-layer="452" to-port="1"/>
		<edge from-layer="452" from-port="2" to-layer="454" to-port="0"/>
		<edge from-layer="453" from-port="1" to-layer="454" to-port="1"/>
		<edge from-layer="454" from-port="2" to-layer="456" to-port="0"/>
		<edge from-layer="455" from-port="1" to-layer="456" to-port="1"/>
		<edge from-layer="456" from-port="2" to-layer="458" to-port="0"/>
		<edge from-layer="457" from-port="1" to-layer="458" to-port="1"/>
		<edge from-layer="341" from-port="2" to-layer="459" to-port="0"/>
		<edge from-layer="458" from-port="2" to-layer="459" to-port="1"/>
		<edge from-layer="459" from-port="2" to-layer="461" to-port="0"/>
		<edge from-layer="460" from-port="1" to-layer="461" to-port="1"/>
		<edge from-layer="122" from-port="2" to-layer="462" to-port="0"/>
		<edge from-layer="461" from-port="2" to-layer="462" to-port="1"/>
		<edge from-layer="462" from-port="2" to-layer="464" to-port="0"/>
		<edge from-layer="463" from-port="1" to-layer="464" to-port="1"/>
		<edge from-layer="464" from-port="2" to-layer="466" to-port="0"/>
		<edge from-layer="465" from-port="1" to-layer="466" to-port="1"/>
		<edge from-layer="466" from-port="2" to-layer="468" to-port="0"/>
		<edge from-layer="467" from-port="1" to-layer="468" to-port="1"/>
		<edge from-layer="468" from-port="2" to-layer="470" to-port="0"/>
		<edge from-layer="469" from-port="1" to-layer="470" to-port="1"/>
		<edge from-layer="470" from-port="2" to-layer="472" to-port="0"/>
		<edge from-layer="471" from-port="1" to-layer="472" to-port="1"/>
		<edge from-layer="472" from-port="2" to-layer="474" to-port="0"/>
		<edge from-layer="473" from-port="1" to-layer="474" to-port="1"/>
		<edge from-layer="474" from-port="2" to-layer="476" to-port="0"/>
		<edge from-layer="475" from-port="1" to-layer="476" to-port="1"/>
		<edge from-layer="476" from-port="2" to-layer="478" to-port="0"/>
		<edge from-layer="477" from-port="1" to-layer="478" to-port="1"/>
		<edge from-layer="478" from-port="2" to-layer="480" to-port="0"/>
		<edge from-layer="479" from-port="1" to-layer="480" to-port="1"/>
		<edge from-layer="480" from-port="2" to-layer="482" to-port="0"/>
		<edge from-layer="481" from-port="1" to-layer="482" to-port="1"/>
		<edge from-layer="482" from-port="2" to-layer="484" to-port="0"/>
		<edge from-layer="483" from-port="1" to-layer="484" to-port="1"/>
		<edge from-layer="484" from-port="2" to-layer="486" to-port="0"/>
		<edge from-layer="485" from-port="1" to-layer="486" to-port="1"/>
		<edge from-layer="486" from-port="2" to-layer="488" to-port="0"/>
		<edge from-layer="487" from-port="1" to-layer="488" to-port="1"/>
		<edge from-layer="488" from-port="2" to-layer="490" to-port="0"/>
		<edge from-layer="489" from-port="1" to-layer="490" to-port="1"/>
		<edge from-layer="490" from-port="2" to-layer="493" to-port="0"/>
		<edge from-layer="491" from-port="1" to-layer="493" to-port="1"/>
		<edge from-layer="492" from-port="1" to-layer="493" to-port="2"/>
		<edge from-layer="493" from-port="3" to-layer="494" to-port="0"/>
		<edge from-layer="494" from-port="1" to-layer="496" to-port="0"/>
		<edge from-layer="495" from-port="1" to-layer="496" to-port="1"/>
		<edge from-layer="496" from-port="2" to-layer="498" to-port="0"/>
		<edge from-layer="497" from-port="1" to-layer="498" to-port="1"/>
		<edge from-layer="498" from-port="2" to-layer="499" to-port="0"/>
		<edge from-layer="493" from-port="4" to-layer="501" to-port="0"/>
		<edge from-layer="500" from-port="1" to-layer="501" to-port="1"/>
		<edge from-layer="501" from-port="2" to-layer="503" to-port="0"/>
		<edge from-layer="502" from-port="1" to-layer="503" to-port="1"/>
		<edge from-layer="503" from-port="2" to-layer="504" to-port="0"/>
		<edge from-layer="462" from-port="2" to-layer="506" to-port="0"/>
		<edge from-layer="505" from-port="1" to-layer="506" to-port="1"/>
		<edge from-layer="459" from-port="2" to-layer="507" to-port="0"/>
		<edge from-layer="506" from-port="2" to-layer="507" to-port="1"/>
		<edge from-layer="507" from-port="2" to-layer="509" to-port="0"/>
		<edge from-layer="508" from-port="1" to-layer="509" to-port="1"/>
		<edge from-layer="509" from-port="2" to-layer="511" to-port="0"/>
		<edge from-layer="510" from-port="1" to-layer="511" to-port="1"/>
		<edge from-layer="511" from-port="2" to-layer="513" to-port="0"/>
		<edge from-layer="512" from-port="1" to-layer="513" to-port="1"/>
		<edge from-layer="513" from-port="2" to-layer="515" to-port="0"/>
		<edge from-layer="514" from-port="1" to-layer="515" to-port="1"/>
		<edge from-layer="515" from-port="2" to-layer="517" to-port="0"/>
		<edge from-layer="516" from-port="1" to-layer="517" to-port="1"/>
		<edge from-layer="517" from-port="2" to-layer="519" to-port="0"/>
		<edge from-layer="518" from-port="1" to-layer="519" to-port="1"/>
		<edge from-layer="519" from-port="2" to-layer="521" to-port="0"/>
		<edge from-layer="520" from-port="1" to-layer="521" to-port="1"/>
		<edge from-layer="521" from-port="2" to-layer="523" to-port="0"/>
		<edge from-layer="522" from-port="1" to-layer="523" to-port="1"/>
		<edge from-layer="523" from-port="2" to-layer="525" to-port="0"/>
		<edge from-layer="524" from-port="1" to-layer="525" to-port="1"/>
		<edge from-layer="525" from-port="2" to-layer="527" to-port="0"/>
		<edge from-layer="526" from-port="1" to-layer="527" to-port="1"/>
		<edge from-layer="527" from-port="2" to-layer="529" to-port="0"/>
		<edge from-layer="528" from-port="1" to-layer="529" to-port="1"/>
		<edge from-layer="529" from-port="2" to-layer="531" to-port="0"/>
		<edge from-layer="530" from-port="1" to-layer="531" to-port="1"/>
		<edge from-layer="531" from-port="2" to-layer="533" to-port="0"/>
		<edge from-layer="532" from-port="1" to-layer="533" to-port="1"/>
		<edge from-layer="533" from-port="2" to-layer="535" to-port="0"/>
		<edge from-layer="534" from-port="1" to-layer="535" to-port="1"/>
		<edge from-layer="535" from-port="2" to-layer="538" to-port="0"/>
		<edge from-layer="536" from-port="1" to-layer="538" to-port="1"/>
		<edge from-layer="537" from-port="1" to-layer="538" to-port="2"/>
		<edge from-layer="538" from-port="3" to-layer="539" to-port="0"/>
		<edge from-layer="539" from-port="1" to-layer="541" to-port="0"/>
		<edge from-layer="540" from-port="1" to-layer="541" to-port="1"/>
		<edge from-layer="541" from-port="2" to-layer="543" to-port="0"/>
		<edge from-layer="542" from-port="1" to-layer="543" to-port="1"/>
		<edge from-layer="543" from-port="2" to-layer="544" to-port="0"/>
		<edge from-layer="538" from-port="4" to-layer="546" to-port="0"/>
		<edge from-layer="545" from-port="1" to-layer="546" to-port="1"/>
		<edge from-layer="546" from-port="2" to-layer="548" to-port="0"/>
		<edge from-layer="547" from-port="1" to-layer="548" to-port="1"/>
		<edge from-layer="548" from-port="2" to-layer="549" to-port="0"/>
		<edge from-layer="507" from-port="2" to-layer="551" to-port="0"/>
		<edge from-layer="550" from-port="1" to-layer="551" to-port="1"/>
		<edge from-layer="456" from-port="2" to-layer="552" to-port="0"/>
		<edge from-layer="551" from-port="2" to-layer="552" to-port="1"/>
		<edge from-layer="552" from-port="2" to-layer="554" to-port="0"/>
		<edge from-layer="553" from-port="1" to-layer="554" to-port="1"/>
		<edge from-layer="554" from-port="2" to-layer="556" to-port="0"/>
		<edge from-layer="555" from-port="1" to-layer="556" to-port="1"/>
		<edge from-layer="556" from-port="2" to-layer="558" to-port="0"/>
		<edge from-layer="557" from-port="1" to-layer="558" to-port="1"/>
		<edge from-layer="558" from-port="2" to-layer="560" to-port="0"/>
		<edge from-layer="559" from-port="1" to-layer="560" to-port="1"/>
		<edge from-layer="560" from-port="2" to-layer="562" to-port="0"/>
		<edge from-layer="561" from-port="1" to-layer="562" to-port="1"/>
		<edge from-layer="562" from-port="2" to-layer="564" to-port="0"/>
		<edge from-layer="563" from-port="1" to-layer="564" to-port="1"/>
		<edge from-layer="564" from-port="2" to-layer="566" to-port="0"/>
		<edge from-layer="565" from-port="1" to-layer="566" to-port="1"/>
		<edge from-layer="566" from-port="2" to-layer="568" to-port="0"/>
		<edge from-layer="567" from-port="1" to-layer="568" to-port="1"/>
		<edge from-layer="568" from-port="2" to-layer="570" to-port="0"/>
		<edge from-layer="569" from-port="1" to-layer="570" to-port="1"/>
		<edge from-layer="570" from-port="2" to-layer="572" to-port="0"/>
		<edge from-layer="571" from-port="1" to-layer="572" to-port="1"/>
		<edge from-layer="572" from-port="2" to-layer="574" to-port="0"/>
		<edge from-layer="573" from-port="1" to-layer="574" to-port="1"/>
		<edge from-layer="574" from-port="2" to-layer="576" to-port="0"/>
		<edge from-layer="575" from-port="1" to-layer="576" to-port="1"/>
		<edge from-layer="576" from-port="2" to-layer="578" to-port="0"/>
		<edge from-layer="577" from-port="1" to-layer="578" to-port="1"/>
		<edge from-layer="578" from-port="2" to-layer="580" to-port="0"/>
		<edge from-layer="579" from-port="1" to-layer="580" to-port="1"/>
		<edge from-layer="580" from-port="2" to-layer="583" to-port="0"/>
		<edge from-layer="581" from-port="1" to-layer="583" to-port="1"/>
		<edge from-layer="582" from-port="1" to-layer="583" to-port="2"/>
		<edge from-layer="583" from-port="3" to-layer="584" to-port="0"/>
		<edge from-layer="584" from-port="1" to-layer="586" to-port="0"/>
		<edge from-layer="585" from-port="1" to-layer="586" to-port="1"/>
		<edge from-layer="586" from-port="2" to-layer="588" to-port="0"/>
		<edge from-layer="587" from-port="1" to-layer="588" to-port="1"/>
		<edge from-layer="588" from-port="2" to-layer="589" to-port="0"/>
		<edge from-layer="583" from-port="4" to-layer="591" to-port="0"/>
		<edge from-layer="590" from-port="1" to-layer="591" to-port="1"/>
		<edge from-layer="591" from-port="2" to-layer="593" to-port="0"/>
		<edge from-layer="592" from-port="1" to-layer="593" to-port="1"/>
		<edge from-layer="593" from-port="2" to-layer="594" to-port="0"/>
	</edges>
	<meta_data>
		<MO_version value=""/>
		<cli_parameters>
			<blobs_as_inputs value="True"/>
			<caffe_parser_path value="DIR"/>
			<data_type value="FP32"/>
			<disable_nhwc_to_nchw value="False"/>
			<disable_omitting_optional value="False"/>
			<disable_resnet_optimization value="False"/>
			<disable_weights_compression value="False"/>
			<enable_concat_optimization value="False"/>
			<enable_flattening_nested_params value="False"/>
			<enable_ssd_gluoncv value="False"/>
			<extensions value="DIR"/>
			<framework value="onnx"/>
			<freeze_placeholder_with_value value="{}"/>
			<generate_deprecated_IR_V2 value="False"/>
			<generate_deprecated_IR_V7 value="False"/>
			<generate_experimental_IR_V10 value="True"/>
			<input_model value="DIR/simple.onnx"/>
			<input_model_is_text value="False"/>
			<input_shape value="[1,3,320,320]"/>
			<k value="DIR/CustomLayersMapping.xml"/>
			<keep_quantize_ops_in_IR value="True"/>
			<keep_shape_ops value="False"/>
			<legacy_mxnet_model value="False"/>
			<log_level value="ERROR"/>
			<mean_scale_values value="{}"/>
			<mean_values value="()"/>
			<model_name value="simple"/>
			<move_to_preprocess value="False"/>
			<output_dir value="DIR"/>
			<placeholder_data_types value="{}"/>
			<placeholder_shapes value="[  1   3 320 320]"/>
			<progress value="False"/>
			<remove_memory value="False"/>
			<remove_output_softmax value="False"/>
			<reverse_input_channels value="False"/>
			<save_params_from_nd value="False"/>
			<scale_values value="()"/>
			<silent value="False"/>
			<stream_output value="False"/>
			<unset unset_cli_parameters="batch, counts, disable_fusing, disable_gfusing, finegrain_fusing, input, input_checkpoint, input_meta_graph, input_proto, input_symbol, mean_file, mean_file_offsets, nd_prefix_name, output, pretrained_model_name, saved_model_dir, saved_model_tags, scale, tensorboard_logdir, tensorflow_custom_layer_libraries, tensorflow_custom_operations_config_update, tensorflow_object_detection_api_pipeline_config, tensorflow_use_custom_operations_config, transformations_config"/>
		</cli_parameters>
	</meta_data>
</net>
